CICIDS/binary/impurity/10/nn_model_deep.pth (torch, 22724 bytes, 6 tensors)

fc1.weight f4 [64, 10]
000000 f9 61 56 40 d5 a6 fc bf 8d 16 4c 3f f5 18 a0 40
       3.3497298 -1.9738413 0.7972191 5.0030465
000010 25 f2 30 be 37 74 fc 3f 3c 3b a7 bf 00 4d de 40
       -0.17279871 1.9722966 -1.3064952 6.9468994
000020 20 c9 1b c0 43 8a 34 bf 5f 1a 68 3f e6 55 24 3f
       -2.4341507 -0.7052347 0.9066524 0.6419357
000030 ae 66 30 3f ce 36 9d 3e c3 86 10 bf 5f f5 90 3d
       0.68906677 0.30705875 -0.5645563 0.07078051
000040 76 b1 aa 3e d2 0f 22 3f 43 9d c5 bf 3d c9 15 3e
       0.33338517 0.6330539 -1.5438617 0.14627548
000050 9e ae 46 bf 3d 29 70 3e 57 18 cc be 90 67 36 3f
       -0.77610195 0.23453231 -0.3986232 0.71251774
000060 38 e4 34 3f fa 7a a3 3d 3c 1e 35 be 5e ae 42 3e
       0.70660734 0.0798244 -0.17687315 0.19011828
000070 ad 9c a1 3c 26 9b 38 bf 70 19 43 3f d0 c5 28 bf
       0.01972803 -0.7211174 0.7621069 -0.6592684
000080 08 c3 1f 3e 10 5c e3 be 3c 7f 7a bf d0 cd e6 3d
       0.15601742 -0.44406176 -0.97850394 0.11269724
000090 84 f3 39 bf 2c f3 21 40 7f 81 88 3e a6 76 9c be
       -0.726372 2.530467 0.26661298 -0.30559272
0000a0 46 1e 9f 3e 04 39 8a be d8 f2 05 3e 6b fc 06 3f
       0.31077784 -0.26996624 0.13080919 0.5272891
0000b0 90 2a 21 3f 74 93 9b 3e 3a 21 2a 3e 3d 15 be 3f
       0.6295557 0.30385935 0.16614237 1.4850231
0000c0 75 55 83 3f 06 11 c5 bf f0 ba 1c bf 51 eb 36 bd
       1.0260454 -1.539582 -0.61222744 -0.04465801
0000d0 9d d9 a0 be 5a c6 5a 3f f1 37 91 3f a4 d6 03 3f
       -0.31416026 0.8545891 1.1345197 0.5149939
0000e0 d2 39 c6 be 85 d1 03 40 9d 82 1b 3f 32 b6 c2 bd
       -0.38715988 2.059663 0.60746175 -0.09507407
0000f0 8f 83 67 bf d4 3b ef be 57 58 1e 3f bf ac 26 bd
       -0.9043512 -0.46725333 0.61853546 -0.040692087
000100 d2 d8 eb 3e f8 e1 7c 3e 2b 58 3a 3f 35 d6 b5 3f
       0.46063858 0.24695575 0.72790784 1.4205996
000110 53 40 31 3e 2a 0a 38 c0 87 aa 71 3f 9a 43 13 3f
       0.17309694 -2.8756204 0.9440083 0.57525027
000120 51 77 23 3f 4f f3 17 be d3 14 9c bf 6a ed 1c bf
       0.6385394 -0.14838909 -1.2193855 -0.61299765
000130 96 a4 1c 3e ca db 05 3e 99 17 e1 be 9e f3 3e 3f
       0.1529716 0.13072124 -0.43963316 0.7459048
000140 c7 7e 3a bf 21 c9 94 be cf 14 33 3f a0 16 e5 3d
       -0.72849697 -0.290597 0.69953626 0.11185956
000150 13 e2 62 3f 00 42 44 be 19 f3 38 3d ab b5 2d 3f
       0.8862621 -0.19165802 0.04515371 0.6785533
000160 4c 39 2a c0 10 de 01 c1 b9 9f d2 be b5 d9 15 be
       -2.6597471 -8.1167145 -0.41137484 -0.1463383
000170 21 15 56 3d e1 b1 04 be 32 4d 3e bf 6e d7 3f 3f
       0.052266244 -0.1295848 -0.7433654 0.74938095
000180 98 31 d7 bf fd e6 07 40 88 94 97 bd 12 c1 d9 3d
       -1.681201 2.1234734 -0.07401377 0.10632528
000190 cc e3 6b bf e8 ee 05 3e 78 d7 0a be 73 29 80 be
       -0.92144465 0.13079417 -0.13558757 -0.25031623
0001a0 0b 4e 55 3f be d9 3e bd ef 07 bc bf c7 7a 2a bf
       0.8332221 -0.046594374 -1.4689921 -0.66593593
0001b0 81 34 c0 be 2f 4d 76 be 65 d8 a1 3e d8 a4 74 3d
       -0.37540057 -0.2405288 0.31610408 0.05972752
0001c0 28 93 c7 3d 77 02 97 be b8 ac 54 be a4 91 d7 bd
       0.09744865 -0.29494068 -0.20769012 -0.105258256
0001d0 e8 8a 4a 3d 83 77 8e be 2c 86 0b be f5 db 41 be
       0.049448878 -0.27825555 -0.13625401 -0.18931563
0001e0 86 60 eb be b0 bc aa bd 02 78 83 bd 67 2b 51 3c
       -0.4597208 -0.083367705 -0.06419374 0.012766696
0001f0 11 6e de 3e 8d e6 96 bc e0 21 0f bd e0 66 7a be
       0.4344335 -0.018420482 -0.034944415 -0.24453306
000200 50 93 08 be a3 64 03 be ca 3e 92 3f 09 35 49 be
       -0.13337445 -0.12831359 1.1425412 -0.19649138
000210 36 d8 85 bf 2d 52 99 be bb 37 d8 3d 01 a3 d7 3d
       -1.0456607 -0.29945508 0.10557505 0.105291374
000220 9c 62 14 bf 04 12 3f 3f ea cc 2c 3f 8b ea 49 bf
       -0.57962966 0.74636865 0.67500174 -0.7887351
000230 ce 38 9e be d5 e2 60 bf b4 d7 d9 3e b6 9b 37 3e
       -0.30902714 -0.8784612 0.4254738 0.17930493
000240 6f 20 28 3d 92 01 f7 3e 9a b1 13 c0 7b 51 85 40
       0.041046556 0.48243386 -2.307715 4.1661963
000250 38 0e 0d bf 0b 8e 3e bf 41 72 ef be 8e dc 7e be
       -0.5509982 -0.7443549 -0.46766856 -0.24888822
000260 28 fe be bd 1f e1 ea bd f2 be 19 3f c4 f0 06 3e
       -0.0932582 -0.1146872 0.60056984 0.13177782
000270 3a 2a f2 be 73 6b 90 3f d0 c4 01 3d b5 59 ed be
       -0.4729784 1.1282791 0.031681836 -0.46357504
000280 4a 4b 7f 3f 54 c9 b6 3e 92 cf e8 3e 2e 65 bd be
       0.99724257 0.35700476 0.45470864 -0.36991256
000290 17 f0 3f bf 89 df 2a be c3 1e 2b be 04 29 01 3f
       -0.74975723 -0.16686834 -0.16710953 0.5045321
0002a0 7a 79 ad bf 7d 56 4d 3d 58 5e 52 bd bb 86 f9 bd
       -1.3552697 0.05013131 -0.051359504 -0.12183901
0002b0 57 1c 88 3e 1f 6f 15 3f 6c cb 73 3f 2c 46 0d 3f
       0.26584122 0.5837268 0.9523227 0.551852
0002c0 9f 5b a2 bf ea 7c 6f 40 9e 6c dd 3e 14 72 01 3e
       -1.268421 3.7419991 0.4324693 0.12641174
0002d0 da 9f 14 3f 60 4d ad 3e b9 55 5a 3e 0c f8 80 be
       0.58056414 0.33848095 0.21321763 -0.25189245
0002e0 b8 24 2a bf a7 99 b7 3d 6b 71 38 3f f1 ca b2 c0
       -0.6646228 0.08964854 0.7204806 -5.587273
0002f0 8a f0 35 bf c7 ae a4 3e fb e3 a5 3f 81 01 14 bf
       -0.7107016 0.32164595 1.2960199 -0.57814795
000300 3c b2 e8 3e 38 6a c7 3e 44 e3 17 bf a0 df b5 bd
       0.45448482 0.38948226 -0.59331155 -0.08880544
000310 67 49 94 c0 ac 67 7a 40 42 02 13 3f ab 46 2d bf
       -4.6339602 3.9125776 0.5742532 -0.67685956
000320 fa 0d 93 be 66 00 ef bd 17 59 88 3e 0c 4a fc 3d
       -0.287216 -0.11669998 0.2663047 0.12318811
000330 e0 d8 80 bc 35 3b 43 be f0 1c 46 be 4a 08 91 be
       -0.015728414 -0.19065554 -0.19346976 -0.28326637
000340 c0 1a d3 bd 78 b5 da 3d 6f b3 aa 3e 16 f4 dc 3e
       -0.103078365 0.10679144 0.33340022 0.43154973
000350 68 f2 79 be 72 91 d6 be 69 74 7c bf 62 a0 f9 bc
       -0.24408877 -0.4190784 -0.9861513 -0.030471984
000360 56 8e 04 3f 03 a1 3b c1 1c 36 db 3d ed 82 97 bd
       0.5177969 -11.7268095 0.1070368 -0.07398019
000370 b0 97 51 be 9e 59 6c 3e 82 3d 13 be 44 d4 81 bd
       -0.2046802 0.23081061 -0.14378932 -0.063393146
000380 40 11 a1 be aa b8 58 3e ce 55 75 3e 7c 07 ec 3d
       -0.31458473 0.21164194 0.23958513 0.11524865
000390 16 ca 61 be 48 cb 9f be c5 7c 05 3f 76 15 50 3e
       -0.22049746 -0.3120978 0.5214351 0.20320687
0003a0 2f 1f ac 3e 48 3c 0c be 8d 31 14 bf c4 71 95 bf
       0.3361754 -0.1369487 -0.5788811 -1.1675344
0003b0 96 8d e6 bd 41 96 43 c1 cd a7 08 bf d5 aa 77 bf
       -0.11257474 -12.224183 -0.53381044 -0.96745044
0003c0 5b 3e 6a 3f 74 d3 de 3d 9a 07 aa be 1a 99 9c 3e
       0.91501397 0.10880175 -0.33208925 0.30585557
0003d0 70 17 ef bd a3 a6 23 c0 8f 2f 05 c1 bf 10 a8 bf
       -0.11674392 -2.5570457 -8.324111 -1.313011
0003e0 7b c8 16 3e 4e 87 93 c0 ed 29 c2 be 9b 4e 1c bf
       0.14724915 -4.6102667 -0.37922612 -0.6105744
0003f0 dd 6e 4d be 22 b0 86 3e 1a 8f d9 3e 07 5d 5f be
       -0.20061822 0.26306254 0.4249199 -0.21812831

fc1.bias f4 [64]
000000 e9 21 5a 3c ee de 59 be 04 c6 b5 bb 17 60 aa be
       0.013313749 -0.21276447 -0.005547287 -0.33276436
000010 17 51 0d bf f2 ee 58 bc 68 95 c0 3c e7 d2 ea bb
       -0.5520186 -0.013240563 0.023508742 -0.007166255
000020 50 07 a1 bc 62 b8 51 be e4 ad 41 3e 65 03 35 be
       -0.019656807 -0.20480493 0.1891399 -0.17677076
000030 b1 40 2f ba f0 58 84 3c 7f 5d 91 bd 22 7e 71 be
       -0.000668536 0.01615569 -0.07097911 -0.23583272
000040 a9 0c 1c bc ee 8a 1b bc 40 96 64 bd 01 5b 5f b9
       -0.009524503 -0.009493573 -0.055807352 -0.00021300839
000050 ae 44 70 be ee f0 2b 3e 56 1f 9f be d3 2d 31 3d
       -0.23463699 0.16791126 -0.31078595 0.043256592
000060 94 d3 e5 3d 20 36 ae be 57 b1 9a be ec f5 bf bd
       0.11221996 -0.3402567 -0.30213425 -0.09373078
000070 e6 4a 9b ba 91 2b 80 be d6 d3 7e 3d 4e f4 fd bc
       -0.0011847883 -0.2503324 0.06221374 -0.031000283
000080 f6 e3 b6 3e d3 1f 2c bd bb 78 6b be 8d b8 05 bd
       0.35720795 -0.042022537 -0.22995274 -0.032646704
000090 2e e8 a3 bd 72 fd ea bb 99 00 10 bf f4 ae dd be
       -0.08003269 -0.0071713263 -0.5625091 -0.4329754
0000a0 7c 69 a1 3d 14 61 a7 ba cc 52 51 be f6 f3 61 3d
       0.07881448 -0.001277002 -0.20441741 0.0551643
0000b0 de c0 2a be 8d 97 95 bc 61 67 44 be 25 13 22 be
       -0.16675135 -0.018260742 -0.19180061 -0.15827616
0000c0 70 0d 62 3c df 74 1d bc 21 d0 57 3d e7 0b 94 bd
       0.013797149 -0.009610384 0.05268872 -0.07228833
0000d0 70 45 1b bd 98 b6 43 bc 5a ff 19 bd 62 65 51 be
       -0.037908018 -0.011945389 -0.037597038 -0.2044883
0000e0 95 a0 a4 3e 46 2a 72 3b 92 fd 04 be 5a 17 65 3e
       0.32153764 0.0036951466 -0.12987354 0.22372189
0000f0 2d 5c 30 bc cc d6 7c bd d4 86 1a be dc cc 87 be
       -0.010764164 -0.061728284 -0.15090495 -0.26523483

fc2.weight f4 [64, 64]
000000 87 de 09 3e 34 9c da 3d 7c db bf be 65 df ba 3d
       0.13463794 0.10674325 -0.3747214 0.091246404
000010 0e b1 fe bf 32 77 8e be ec f6 d1 bf ce 28 8c 3f
       -1.9897783 -0.27825314 -1.640348 1.0949953
000020 70 e3 14 c0 2b 78 86 bf 7d b7 6c be 3e b1 d6 3d
       -2.3263817 -1.0505422 -0.2311687 0.10483025
000030 f7 bf af 3d 56 b4 1b 3f f8 21 15 3c 00 41 80 be
       0.08581536 0.60822046 0.009102337 -0.2504959
000040 7f e2 8d 3e 0a 2a 69 3e fe eb 41 3d bf fc 3d 3f
       0.27711865 0.22769943 0.0473442 0.74213785
000050 80 c1 3f bd 67 e3 52 3f c8 2a 36 3d 49 00 a6 3e
       -0.046815395 0.8237824 0.044474393 0.32422093
000060 a9 18 07 40 ab 72 86 be 5a 46 ee 3e 28 a8 88 bd
       2.1108801 -0.2625936 0.4653805 -0.06672698
000070 36 e6 d8 3e 4e 69 8f 3d 8a 3a bc 3f 42 b7 00 3e
       0.42363137 0.07002507 1.4705365 0.12569907
000080 c8 f8 75 bf b6 d0 cc 3e 18 53 83 3d d4 df 41 3e
       -0.96082735 0.40002984 0.06412333 0.1893304
000090 83 76 82 3d 41 d4 8f 3e 51 83 a7 3f 79 80 7a 3f
       0.063702606 0.28091624 1.308695 0.97852284
0000a0 bc 6e 8c be 1a 04 c2 3d 64 d4 8f 3d 23 9b 7f 3f
       -0.27428234 0.094734386 0.07022932 0.99846095
0000b0 09 6d 35 be c0 a8 88 be eb 19 94 bf 7f 32 62 3f
       -0.17717375 -0.26691246 -1.157041 0.883583
0000c0 00 e5 14 3f 7e 69 c6 3e f1 f1 64 3f fa 20 8f be
       0.58161926 0.3875236 0.89431673 -0.27954847
0000d0 b8 da 1d be bf 9c 02 3f 66 ce 0d bf 49 0a 6c be
       -0.15415466 0.51020426 -0.55393064 -0.23050798
0000e0 d1 a2 a4 bf 45 77 05 bf 30 36 4e 3d c9 17 14 3f
       -1.2862188 -0.52135116 0.050344646 0.57848793
0000f0 a3 99 13 c0 07 b6 6d bf 70 06 08 3d 12 c5 ef bd
       -2.3062522 -0.92855877 0.033209264 -0.1170751
000100 81 09 b0 be 98 32 de be f8 71 96 3e 39 aa 55 3d
       -0.3438225 -0.43397975 0.29383826 0.05216429
000110 69 12 c1 3f 08 66 e8 3e c8 87 15 3f d3 39 95 bf
       1.5083743 0.45390344 0.5841031 -1.1658272
000120 92 22 03 40 2d fa 31 3f c2 a3 61 3e f0 a8 81 bc
       2.048985 0.6952236 0.22035125 -0.015827626
000130 9b 0b e1 3d 5b 72 f4 be 56 c3 3a 3e ba c8 54 3e
       0.10988542 -0.47743496 0.18238577 0.20779696
000140 8c 57 26 bf b3 6a 4e 3e 83 9a 83 bf 55 54 d9 be
       -0.64977336 0.2015789 -1.0281528 -0.42447153
000150 d2 32 82 bd 7a 1b 09 be 0c 8d 67 bd bc 88 59 3e
       -0.063573495 -0.13389388 -0.056530997 0.21243566
000160 0a da 64 3f 7e c8 42 be ae 96 c3 be 1e 23 aa be
       0.893952 -0.19021794 -0.38200897 -0.33229917
000170 c1 a5 22 bf 50 b7 aa bc 77 2c a7 bf 06 4f ad 3c
       -0.6353417 -0.020839363 -1.3060445 0.021155845
000180 66 66 14 3e 43 af f4 be e0 95 e4 bd 14 f3 07 be
       0.14492187 -0.47789964 -0.11161399 -0.1327632
000190 f1 5e ed bc af be 2d 3e 66 77 ea bf 6b 8b cd bf
       -0.028975936 0.16967271 -1.8317688 -1.6058172
0001a0 e5 f9 43 3f bc 93 bd 3e 97 b9 43 bd 58 c8 83 be
       0.76553184 0.37026775 -0.047784414 -0.25738788
0001b0 69 25 56 3e 2e eb 50 3f 14 44 91 3f e9 d7 8a bf
       0.20912708 0.81608856 1.1348901 -1.084714
0001c0 1c 0e 08 40 46 b9 c0 be cd 96 66 be 5b 56 4b 3e
       2.1258612 -0.37641352 -0.22518463 0.19857161
0001d0 75 17 a3 bd 65 7b dd bd 6d bc 0d be 89 5d a7 3e
       -0.079634584 -0.10814551 -0.1384141 0.3268855
0001e0 c8 49 b7 3d 40 1e 15 3e 83 05 3e bf eb 41 2b be
       0.089496195 0.1456232 -0.7422716 -0.16724364
0001f0 39 f3 ca 3f 47 ed 28 3f e8 a6 9a 3d 80 77 c2 bb
       1.5855476 0.65987056 0.07551366 -0.0059346557
000200 49 ae 27 be 4f 38 a8 bd 76 51 24 be 85 a2 c4 3c
       -0.16375078 -0.08213865 -0.160467 0.024003277
000210 60 2a b8 bd d6 68 39 bd 88 80 56 bd 0d 96 c6 bd
       -0.089924574 -0.045265995 -0.05236867 -0.09696589
000220 d1 24 59 3d 3e 19 2f be 9b d7 f2 bd b4 f7 e7 bd
       0.053013626 -0.17099473 -0.1185753 -0.113265425
000230 34 15 62 bd 23 7b a6 bd b6 71 61 bd 4b 24 ba bd
       -0.055196002 -0.08128955 -0.055040084 -0.090889536
000240 af bc 39 3d 88 5a d3 3d b1 bf 38 3c 0e 7a b4 bd
       0.04534596 0.10320002 0.011276172 -0.088123426
000250 f8 b6 ef bd 82 e5 db 36 a8 ac 7d bd 3f f9 b6 3c
       -0.117048204 6.553427e-06 -0.061932236 0.022335647
000260 0e 1d 90 3d 20 ce 2e 3d 79 8a 9c 3d 78 33 d3 3d
       0.07036792 0.042677045 0.07643599 0.10312551
000270 19 d3 ab 3c f0 87 ba bd 77 9a 86 3d 6b 69 ca bd
       0.020974683 -0.09107959 0.065724306 -0.09883388
000280 49 f4 78 bd f1 29 b2 3d f8 59 c6 3d c7 25 24 3c
       -0.060779843 0.08699406 0.09685129 0.010018772
000290 3c 25 8c 3c 02 79 db bd 9f 5f 96 bd f5 92 cb 3d
       0.017107598 -0.1071644 -0.07342457 0.09940139
0002a0 bb fc de 3b 5e 17 b5 b9 0a 39 75 bc cd d4 a3 bd
       0.00680503 -0.0003454042 -0.014967212 -0.07999573
0002b0 f6 f6 ae 3d 88 6d 31 bd ec 42 aa 3d 31 14 40 bd
       0.08543198 -0.043317348 0.083135456 -0.046894256
0002c0 6a 78 8d 3d 1b cc 73 3d 98 ec a9 bc 0b c3 8f 3d
       0.06907733 0.059520822 -0.0207427 0.07019623
0002d0 16 b6 3e 3d f1 42 aa 3d 8b ce dc 3c 38 21 31 bd
       0.04656037 0.08313549 0.026953956 -0.04324457
0002e0 0d c5 0d be 59 f1 10 bd 80 97 a7 bc 9d e9 29 bd
       -0.138447 -0.035386417 -0.020457983 -0.041482557
0002f0 e6 a5 0d bd 00 1e e3 bb 06 c9 ba 3d 8c 9c 1f 3d
       -0.03458204 -0.0069310665 0.091203734 0.038967654
000300 f8 3d c4 bd 24 4a 64 bd e1 3b 2b bd fd ec e3 bd
       -0.09582132 -0.05573477 -0.04180515 -0.11129186
000310 b1 43 cc 3d bf c4 d8 3c 49 8e c8 3d 41 da 73 3d
       0.099738486 0.026461003 0.09792764 0.059534315
000320 ed 84 74 3d ab 24 a7 3c a0 9d f4 bd 20 e1 36 3c
       0.05969708 0.020403227 -0.11944127 0.011162072
000330 d9 31 8f bc 48 0a ab bd 8c 2e ed bd c5 25 03 3e
       -0.017479824 -0.0835157 -0.11581144 0.12807377
000340 44 e0 c4 3d 16 f5 c1 3c 11 20 a6 3d 5a cf db bd
       0.09613088 0.023676436 0.08111585 -0.107329085
000350 38 de b0 bc 76 e2 78 bc 28 31 a9 bc 2a fb 70 bd
       -0.021590337 -0.015190711 -0.020653322 -0.05883328
000360 dd 57 d7 bd a9 8b 25 3d 58 fc 0b be 9f 9f a3 3b
       -0.105148055 0.040416393 -0.1367048 0.0049933936
000370 25 be d0 3d f8 99 1d bd aa 22 ac bd 9e 79 d1 3c
       0.10192517 -0.038476914 -0.08405049 0.025570687
000380 e7 09 a1 bd 2b 9c 2f 3b 7c 09 ef 3d ac 24 e5 bd
       -0.07863217 0.0026795964 0.11671731 -0.11188635
000390 59 36 a3 bd d2 34 06 3c f6 42 ac bd 80 f1 72 bd
       -0.0796935 0.008191304 -0.08411209 -0.059312344
0003a0 0a 4a 9d bd 6c 01 8b 3c 28 04 ae 3c 0a 97 a0 bd
       -0.076801375 0.016968451 0.021242216 -0.078413084
0003b0 0d 79 9b bd a7 f2 4b bd 84 15 58 bd 2e ec 86 bd
       -0.07591448 -0.04979196 -0.052754894 -0.065880165
0003c0 5d bf e5 bd 27 69 6a 3d 31 ca ff bd c8 3b f3 bd
       -0.1121814 0.057229187 -0.12489737 -0.11876637
0003d0 f5 37 b7 bd bc 14 bd 3c 27 db d6 bd cf fb 7e bd
       -0.0894622 0.023081176 -0.10491019 -0.062251862
0003e0 8a 16 82 3d 15 7c 64 3d ca 20 54 3d e8 f4 04 be
       0.06351955 0.055782396 0.051789083 -0.1298405
0003f0 71 9c f6 bd 0a f8 c8 bd 22 7b d3 3d e0 82 51 3c
       -0.120415576 -0.09812935 0.1032622 0.012787551

fc2.bias f4 [64]
000000 b6 4a d5 bc ce 1d af 3d 7b 53 94 bd 62 76 c0 bc
       -0.026036602 0.08550607 -0.07242485 -0.02349395
000010 14 e8 40 3c 66 88 2e 3d 1c 08 94 3e 91 13 80 3e
       0.011774082 0.04261055 0.28912437 0.25014928
000020 8e 1d b9 3d dd 10 06 3e 1a de ce bd 67 61 31 3d
       0.0903884 0.1309237 -0.10100956 0.04330578
000030 f3 10 0f 3e 34 62 07 3d c0 b4 f4 3d dc e6 dc 3b
       0.1397131 0.03305264 0.11948538 0.006741388
000040 e2 57 50 3d 6b d7 06 3d 9a ec b8 be 7c 04 1d 3d
       0.05086506 0.032920282 -0.36118013 0.038334355
000050 fa 84 9a bd af f4 03 3e a7 02 9d 3e 64 b3 06 3e
       -0.075448945 0.12886308 0.30666086 0.1315437
000060 f0 92 41 bd 60 ff 5e 3d 12 b5 e6 bd 1d 54 c6 3d
       -0.04725927 0.054442763 -0.11265005 0.09684012
000070 7a ce 3f 3d 13 91 07 be 45 30 43 3e 9f f7 77 bd
       0.04682777 -0.13238935 0.19061382 -0.060538884
000080 2e 3c e4 bd fb d1 88 3c c4 63 82 3e 65 61 f7 bd
       -0.11144291 0.016701689 0.2546674 -0.120791234
000090 37 e1 a7 3d bf 87 f4 3e c2 73 a8 bc 86 ed 0b be
       0.08197253 0.47759816 -0.02056301 -0.13664827
0000a0 ab 67 53 3e 57 d6 d3 bd ef 36 2e 3e f1 56 3f bc
       0.20645015 -0.103436165 0.17013143 -0.011678443
0000b0 bd e7 8d 3d b0 61 2a 3e 67 99 ac bd 16 72 d5 3d
       0.06928966 0.16638827 -0.08427697 0.10422151
0000c0 cf bf b2 be 6a 99 00 be f1 7d dc 3d a4 37 0b 3e
       -0.34911963 -0.12558523 0.10766209 0.13595444
0000d0 ab 9e 0a 3e 2c ec c7 3d ed a9 3e 3e 9c 17 10 3e
       0.1353709 0.09761843 0.18619509 0.14071506
0000e0 88 b8 d2 3d 03 bc 98 bd 3f d5 d0 3c e7 03 13 3e
       0.10289103 -0.074577354 0.025492309 0.14356957
0000f0 7c ee 49 be f9 f1 af 3d ce b3 ea 3d 97 c0 16 3e
       -0.19719881 0.085910745 0.11460076 0.14721905

fc3.weight f4 [2, 64]
000000 13 15 ad be d0 cd 63 3d e2 e1 01 3d 90 42 97 bd
       -0.3380514 0.0556162 0.03170956 -0.07385743
000010 81 60 13 bf 7a f6 c4 be 7a 33 1b 3f 84 98 90 3e
       -0.5756913 -0.38469297 0.6062542 0.2824136
000020 ca b0 71 3f 2e 32 dc bf eb f6 e9 bd be 67 54 bf
       0.94410384 -1.7202814 -0.11424049 -0.829708
000030 2c f7 7e 3e 33 0c 0f bf b6 16 00 bf f9 d1 d9 be
       0.24898976 -0.5587799 -0.50034654 -0.4254301
000040 cf 66 ad be 41 9b fb bf de 1b b0 bf b5 ac 16 bf
       -0.338675 -1.9656755 -1.3758504 -0.5885728
000050 56 01 e8 bd a2 44 19 bf 7c ce c4 bf a6 a8 e6 be
       -0.1132838 -0.5987035 -1.5375514 -0.45050544
000060 64 87 81 3d 03 e4 0a bf b8 4e d2 bc 69 4c 41 3f
       0.06324652 -0.5425417 -0.025672302 0.7550722
000070 4f 34 04 c0 c5 f2 3d 3d 38 2e 65 3e d2 25 2c be
       -2.0656927 0.0463741 0.22380912 -0.16811302
000080 1c ee 86 3c 97 a3 0a 3e 5c 49 80 3e 75 60 59 bf
       0.016470961 0.13538967 0.2505597 -0.84912807
000090 53 51 03 bf 2a 9f a5 3f 5f 92 34 3a fe 0e 6b 3d
       -0.51295966 1.2939198 0.0006888266 0.057387345
0000a0 a6 28 4b 3e c5 f0 09 bd e6 e1 0c 3e ba 9e fc be
       0.19839725 -0.03367688 0.13758048 -0.4933985
0000b0 08 04 30 bf 9c 80 f9 3d d3 02 12 bc 7f d0 50 3e
       -0.6875615 0.121827334 -0.008911806 0.20392035
0000c0 3d 2d 95 bf bd 16 27 ba d1 a2 01 3e 86 60 fb bf
       -1.1654431 -0.00063739327 0.12659766 -1.9638832
0000d0 2b 15 42 3d 74 b1 1a bf 56 ea 63 3e 16 27 0f 3d
       0.04738347 -0.6042702 0.22257361 0.034949385
0000e0 16 3e cd 3d f2 21 75 bd 59 df e5 be 97 2a 22 3e
       0.100216076 -0.059846826 -0.44896963 0.15836559
0000f0 36 9f 7f 3d d2 79 5e 3d 6d b9 e7 3d 85 2f 8b 3e
       0.062407695 0.054315396 0.11314664 0.27184692
000100 2e 7d 09 3f db 68 03 be d8 a1 76 3d 7a 54 82 bd
       0.53706634 -0.12832968 0.06021294 -0.06363769
000110 d1 0f c1 3e 3b 96 0e 3f 7f 75 27 bf 97 93 74 be
       0.3770738 0.55697984 -0.6541366 -0.23884426
000120 92 25 56 bf 3e 14 ec 3f 29 80 c7 bd 68 64 21 3f
       -0.8365108 1.8443677 -0.097412415 0.6304383
000130 62 ce 8b be 0f eb 41 3f 70 39 10 3f 26 ca ec 3e
       -0.27305895 0.75749296 0.5633764 0.46247977
000140 8c 5f f6 3e 1f db ef 3f 8e 8a c1 3f 2d 91 f7 3e
       0.4811977 1.8738745 1.5120409 0.48352948
000150 c0 6a 40 3c 9d 2d fc 3e 3f da c8 3f 18 62 0c 3f
       0.011744201 0.4925355 1.5691603 0.5483718
000160 c0 16 59 bc 01 c8 12 3f d8 99 04 bd 96 b4 2e bf
       -0.013250053 0.5733643 -0.03237328 -0.682443
000170 8d b4 09 40 22 6e d4 3c 67 0f 41 be d1 36 9a 3d
       2.151645 0.025931422 -0.18853532 0.07529987
000180 4a a8 93 3d 99 00 0f bd 39 0b 4d be 94 47 68 3f
       0.07209833 -0.03491268 -0.20023812 0.9073422
000190 e1 6e f4 3e b9 31 b9 bf cb 3a 02 be 89 80 cc 3d
       0.47740844 -1.4468299 -0.1271774 0.09985454
0001a0 37 63 13 be 84 3a b1 bc e6 e1 03 be e3 56 10 3f
       -0.14393316 -0.021634348 -0.12879142 0.5638258
0001b0 4f 84 46 3f 1b ca 87 be c9 13 86 bd d5 d0 37 3c
       0.77545637 -0.26521382 -0.065467425 0.011219223
0001c0 a0 a9 a1 3f 61 48 19 bc ad a2 8d be 58 f2 f7 3f
       1.262989 -0.009355635 -0.27663174 1.9370832
0001d0 76 25 5f be 80 f1 0e 3f 33 53 81 be ba 74 4b be
       -0.21791634 0.5583725 -0.25258788 -0.19868746
0001e0 e3 b4 74 be 1c 74 7a 3d 82 11 07 3f fe a7 22 be
       -0.23897128 0.061145887 0.5276109 -0.15884396
0001f0 b3 4a 6a 3d f0 6b 1c be 13 3e 28 be 54 78 ec bd
       0.057200145 -0.1527555 -0.1642993 -0.11546388

fc3.bias f4 [2]
000000 3b be be 3e 8a 71 6c be
       0.3725451 -0.23090187
