CICIDS/binary/impurity/10/nn_model_simple.pth (torch, 5520 bytes, 4 tensors)

fc1.weight f4 [64, 10]
-0.106874555 0.3010669 -0.17755373 -0.14445005 0.25204608 -0.081486076 -0.12772074 0.048930734
-0.05343476 0.19922069 -1.1350006 0.29772523 0.30900922 1.3174736 1.9347684 1.0840259
-2.5579295 1.3555131 -0.39445722 0.38535747 -2.8537943 0.43275902 2.1922836 0.385574
0.6051632 0.65966827 -19.677912 7.6262813 0.9749639 -2.7210264 -1.1749257 -0.076812394
0.1978726 1.3263146 1.6437032 1.228665 -1.9514835 0.36476013 -1.476522 0.15494072
2.555521 0.055819213 0.38641044 -0.94217426 -1.0261978 0.013791838 3.183027 -13.375391
1.7165123 -0.08113771 2.026833 1.0582052 0.77741313 0.6131036 -1.272746 -0.2044568
0.24324764 -7.6980357 -0.9351299 0.49458823 0.50876534 0.47492227 1.0334287 -0.1367834
-2.1131117 -0.11735748 -0.20382378 -20.588223 -1.0254834 -0.13066079 2.5244715 0.93537134
0.20145798 -0.71978194 -1.1921157 -2.8390543 -0.5978578 2.7098572 0.09552722 2.402669
2.3693247 0.8803994 1.2342746 -0.36910024 -1.5299013 -0.66721404 -0.4312631 2.1766465
-0.31103632 0.31069243 1.9685726 1.0698246 0.4061812 0.744364 -1.5309919 0.1324135
0.2004588 -7.7310185 -0.30421457 0.4826807 -0.20058349 0.51875114 1.4533517 0.52320373
-0.6219141 1.2179883 -0.31633833 -8.515786 0.99598616 0.34539855 -1.0749798 -0.015168978
0.22777067 1.281596 1.8121165 1.0527554 -2.0960495 0.9088626 -0.20539406 0.22915469
-1.5801239 0.14212875 0.2754876 1.0523652 1.5233775 -0.78526884 -1.4211793 0.16120936
-0.14201088 -3.2493598 1.9597034 1.3419077 0.6097757 0.42217717 -1.1781398 -0.16653112
0.23312554 -7.1704087 -0.9050872 0.40409163 -10.17548 16.691286 -8.056745 -26.355734
-3.3071265 -3.3202074 11.634413 -15.729452 -10.565623 -1.0656859 -1.4124693 -2.5561543
-20.763988 -5.007432 0.90110016 0.8789677 3.873631 -14.4598255 0.81705135 -0.7554933
-1.3312814 0.2935896 0.057125892 1.0184952 1.5966734 0.39975616 -2.2616901 0.56448084
-1.0174437 -0.87333566 -7.510621 13.728592 -9.026805 -28.67645 -1.3712387 -0.33800858
11.86355 -15.863344 -9.882301 0.50711954 2.3773563 0.44183397 0.72081685 -0.79738
-1.4974345 -0.33095002 -0.37474748 1.528578 0.034195814 1.1192824 1.5531893 1.1533316
1.9694221 1.2114336 -0.44860783 0.4864912 -4.716082 -7.266325 -3.0474737 1.4503188
0.34291056 0.25885904 1.1782988 0.16280155 -2.2065883 0.027656408 0.14381988 -19.680424
-2.704887 -0.18959431 2.2094445 1.3612009 0.5138354 0.811689 -1.544207 -0.045089718
0.22268745 -7.5308466 -0.8175448 0.55382365 -1.5018271 -6.773238 -23.548353 -5.8289804
0.18175198 0.8009924 4.1335063 -15.229799 1.1775569 -0.85583895 -1.7917832 0.23127775
0.08642498 1.0665537 1.9859617 -0.8284976 -1.3952373 -1.2149616 0.017983157 -3.4156754
-2.7362037 2.4156208 -19.854385 -1.4553049 1.5237591 0.4827584 2.3074882 -21.202454
-7.668092 -0.45947212 2.1145027 1.3174586 0.7199049 0.3558836 -1.3583674 -0.083443604
00000000: 0ce1 dabd 7125 9a3e a5d0 35be b7ea 13be
00000010: 2f0c 813e 2ce2 a6bd 3ac9 02be 986b 483d
00000020: 68de 5abd 8200 4c3e b347 91bf 716f 983e
00000030: 7536 9e3e faa2 a83f 7ea6 f73f 5cc1 8a3f
00000040: 1eb5 23c0 7481 ad3f 4cf6 c9be 934d c53e
00000050: 91a4 36c0 9792 dd3e 604e 0c40 f569 c53e
00000060: faeb 1a3f 05e0 283f 5d6c 9dc1 7f0a f440
00000070: 3c97 793f 4c25 2ec0 f763 96bf d14f 9dbd
00000080: 1d9f 4a3e adc4 a93f de64 d23f e544 9d3f
00000090: 36ca f9bf d7c1 ba3e acfe bcbf c8a8 1e3e
000000a0: a88d 2340 b0a2 643d 97d7 c53e 5532 71bf
000000b0: 735a 83bf 29f7 613c b7b6 4b40 9a01 56c1
000000c0: adb6 db3f 872b a6bd a2b7 0140 4573 873f
000000d0: 8c04 473f 5cf4 1c3f 57e9 a2bf 205d 51be
000000e0: e915 793e 4f56 f6c0 ac64 6fbf ab3a fd3e
000000f0: 723e 023f 0329 f33e 6447 843f f310 0cbe
00000100: 393d 07c0 1e59 f0bd 2eb7 50be aeb4 a4c1
00000110: 0a43 83bf f1cb 05be f190 2140 7f74 6f3f
00000120: 004b 4e3e a143 38bf 3f97 98bf 11b3 35c0
00000130: 350d 19bf 4d6e 2d40 c6a3 c33d 54c5 1940
00000140: 04a3 1740 db61 613f b6fc 9d3f b5fa bcbe
00000150: ced3 c3bf 8ace 2abf 84ce dcbe 2d4e 0b40
00000160: 2740 9fbe 1413 9f3e 30fa fb3f 03f0 883f
00000170: fbf6 cf3e a48e 3e3f 8bf7 c3bf 6897 073e
00000180: 1245 4d3e 8164 f7c0 03c2 9bbe ed21 f73e
00000190: c265 4dbe e0cc 043f 6e07 ba3f aef0 053f
000001a0: c335 1fbf 0ae7 9b3f 19f7 a1be a940 08c1
000001b0: f3f8 7e3f 14d8 b03e f098 89bf 4e87 78bc
000001c0: b73c 693e 560b a43f 6ff3 e73f b0c0 863f
000001d0: ad25 06c0 38ab 683f d252 52be 87a7 6a3e
000001e0: 8041 cabf 338a 113e b60c 8d3e e7b3 863f
000001f0: 09fe c23f 6107 49bf 34e9 b5bf 1114 253e
00000200: 4d6b 11be 83f5 4fc0 90d7 fa3f a2c3 ab3f
00000210: 431a 1c3f 9b27 d83e 49cd 96bf 2287 2abe
00000220: 76b8 6e3e fd73 e5c0 cbb3 67bf 19e5 ce3e
00000230: c4ce 22c1 c187 8541 6de8 00c1 8bd8 d2c1
00000240: f6a7 53c0 477e 54c0 8e26 3a41 d6ab 7bc1
00000250: cb0c 29c1 6568 88bf cbcb b4bf 0898 23c0
00000260: a61c a6c1 e23c a0c0 80ae 663f 0704 613f
00000270: 92e9 7740 725b 67c1 472a 513f 0268 41bf
00000280: 6e67 aabf 6051 963e d7fc 693d 0d5e 823f
00000290: cb5f cc3f d7ac cc3e 88bf 10c0 d181 103f
000002a0: 983b 82bf ed92 5fbf 0257 f0c0 50a8 5b41
000002b0: cb6d 10c1 5f69 e5c1 c084 afbf 760f adbe
000002c0: 1ad1 3d41 42d0 7dc1 e81d 1ec1 96d2 013f
000002d0: 9b26 1840 1038 e23e 7487 383f 1821 4cbf
000002e0: efab bfbf 4872 a9be e7de bfbe 72a8 c33f
000002f0: e910 0c3d a544 8f3f e8ce c63f 5fa0 933f
00000300: 0616 fc3f 4210 9b3f edaf e5be 6015 f93e
00000310: 25ea 96c0 bc85 e8c0 cf09 43c0 0ca4 b93f
00000320: f991 af3e 2c89 843e 7fd2 963f 73b5 263e
00000330: be38 0dc0 b18f e23c 8545 133e 8271 9dc1
00000340: de1c 2dc0 0325 42be 8a67 0d40 d53b ae3f
00000350: b78a 033f daca 4f3f 93a8 c5bf ffaf 38bd
00000360: 2e08 643e b2fc f0c0 9e4a 51bf 63c7 0d3f
00000370: df3b c0bf 5ebe d8c0 0763 bcc1 0287 bac0
00000380: 311d 3a3e d70d 4d3f af45 8440 42ad 73c1
00000390: 2fba 963f 4318 5bbf 2759 e5bf 13d4 6c3e
000003a0: 94ff b03d d584 883f fe33 fe3f 6b18 54bf
000003b0: 2397 b2bf dd83 9bbf 6a51 933c 6d9a 5ac0
000003c0: f61d 2fc0 8899 1a40 c8d5 9ec1 6e47 babf
000003d0: 8a0a c33f 1c2c f73e e3ad 1340 a09e a9c1
000003e0: 0261 f5c0 ee3f ebbe 0354 0740 7ca2 a83f
000003f0: b04b 383f 6036 b63e fcde adbf 7be4 aabd

fc1.bias f4 [64]
-0.1601878 0.331177 0.030485172 0.29567778 0.09850813 -0.27080387 0.22363475 -0.045881
-0.037205923 -0.21880895 -0.84883076 0.22381693 0.4853395 -0.2662259 0.19886376 0.031300914
0.2915097 0.10388341 -0.021406647 -1.0478145 0.24581419 -0.27287608 0.15191498 0.51155233
0.13091777 -0.27246168 0.318031 -1.2735224 0.32837948 -0.23167007 -0.21667132 0.37110987
-0.17928739 -0.1425008 0.6200807 -0.19937782 0.43001115 -0.22065029 0.030451998 0.053569745
0.3611049 -0.2781143 -0.01405903 0.24750887 0.41435328 -0.3202207 -0.33137864 0.12707846
-0.037674274 -0.63632077 0.43990785 -0.8469738 0.25008288 -0.18209024 0.3773001 -0.3142565
-0.30195084 0.09899374 -0.31103736 0.01827141 -0.2273496 -0.15971152 -0.030387515 -0.11895902
00000000: 4508 24be 0890 a93e 0abc f93c 1463 973e
00000010: a1be c93d cea6 8abe 8200 653e b7ed 3bbd
00000020: 3d65 18bd 740f 60be f94c 59bf 4430 653e
00000030: 6b7e f83e c34e 88be f1a2 4b3e 6335 003d
00000040: c240 953e d3c0 d43d fe5c afbc c91e 86bf
00000050: b7b6 7b3e 6ab6 8bbe 9a8f 1b3e 18f5 023f
00000060: 4f0f 063e 1980 8bbe f6d4 a23e c802 a3bf
00000070: 5b21 a83e eb3a 6dbe 16df 5dbe 1d02 be3e
00000080: 1d97 37be bbeb 11be 9cbd 1e3f b329 4cbe
00000090: 6c2a dc3e 26f2 61be 7876 f93c f36b 5b3d
000000a0: bee2 b83e ff64 8ebe d957 66bc f772 7d3e
000000b0: 1d26 d43e f8f3 a3be 76aa a9be db20 023e
000000c0: 5750 1abd ebe5 22bf 9a3b e13e 46d3 58bf
000000d0: dd0a 803e dd75 3abe 7b2d c13e 3ae6 a0be
000000e0: 4d99 9abe 3bbd ca3d 4a40 9fbe edad 953c
000000f0: 55ce 68be 6b8b 23be 3def f8bc c9a0 f3bd

fc2.weight f4 [2, 64]
0.029549658 0.53697354 16.833296 0.6605853 -1.9026396 -2.3243692 -3.079857 -4.4330053
-2.518195 -2.9373202 -3.301695 0.63722074 1.4797671 -2.3123546 -6.217827 -4.196783
0.45442834 -5.2055383 -2.7051795 -6.9313607 -3.755566 -2.7389245 -2.9289587 1.5717508
-3.5997407 -2.257743 0.42290092 7.805771 0.5418132 -2.6742456 5.7925334 0.5823886
0.060020417 -0.12432237 1.3184639 -2.7176828 -2.3628852 -0.04458791 -4.052828 -8.886166
0.6476495 6.593277 -2.9102612 0.71177644 0.58715606 -2.1507845 -0.04867295 1.8352135
-2.4453466 4.563678 1.7056137 -3.4937193 1.0083337 9.392885 0.66551834 -2.5397408
-2.7540178 -5.7077646 -0.1031114 -3.354639 7.9039593 0.09314425 -3.104613 -0.04457048
-0.07008767 -0.5961982 -16.878832 -0.64578253 1.9953603 2.368761 2.977108 4.29346
2.6368816 3.0796542 3.4525745 -0.5818799 -1.3717754 2.298665 6.1870074 4.252372
-0.26747102 5.074063 2.9046662 6.976412 3.957294 2.9870288 3.1554358 -1.3686261
3.6671798 2.1455417 -0.41858718 -7.7283716 -0.6027751 2.736391 -5.8011074 -0.65876174
-0.056004167 -0.11128923 -1.2032017 2.8228774 2.369278 0.09907338 4.061471 8.830143
-0.63876414 -6.714164 2.9459593 -0.8211213 -0.6796402 2.2559135 0.01620825 -1.9033207
2.5226567 -4.782849 -1.5606772 3.4894428 -0.88605595 -9.367474 -0.74664813 2.7326157
2.6873913 5.6403074 0.12039894 3.252359 -7.8876386 0.032174185 3.1344514 -0.061580714
00000000: 2012 f23c 1977 093f 97aa 8641 1e1c 293f
00000010: b289 f3bf 77c2 14c0 611c 45c0 2edb 8dc0
00000020: 1b2a 21c0 0efd 3bc0 f94e 53c0 e620 233f
00000030: 0269 bd3f 9efd 13c0 70f8 c6c0 0c4c 86c0
00000040: d5aa e83e c593 a6c0 a921 2dc0 b5cd ddc0
00000050: 315b 70c0 8a4a 2fc0 0f74 3bc0 212f c93f
00000060: 2762 66c0 dc7e 10c0 7886 d83e e0c8 f940
00000070: 45b4 0a3f d726 2bc0 6f5c b940 6b17 153f
00000080: f8d7 753d ba9c febd 6dc3 a83f 84ee 2dc0
00000090: 8339 17c0 d0a1 36bd c4b0 81c0 bc2d 0ec1
000000a0: 5ccc 253f 20fc d240 b841 3ac0 fb36 363f
000000b0: dc4f 163f 74a6 09c0 4a5d 47bd 47e8 ea3f
000000c0: 8f80 1cc0 a609 9240 8d51 da3f 1999 5fc0
000000d0: 1411 813f 4249 1641 695f 2a3f 1d8b 22c0
000000e0: d441 30c0 02a6 b6c0 122c d3bd 68b2 56c0
000000f0: 3ced fc40 6ac2 be3d fbb1 46c0 898f 36bd
00000100: 208a 8fbd 72a0 18bf d907 87c1 0152 25bf
00000110: f767 ff3f c899 1740 f088 3e40 0664 8940
00000120: abc2 2840 0e19 4540 fbf6 5c40 15f6 14bf
00000130: 5696 afbf 541d 1340 f7fb c540 6e13 8840
00000140: f6f1 88be b95e a240 0de6 3940 c43e df40
00000150: 4e44 7d40 7b2b 3f40 a9f2 4940 242f afbf
00000160: 13b3 6a40 8e50 0940 0f51 d6be d24e f7c0
00000170: 784f 1abf 0821 2f40 aca2 b9c0 9ca4 28bf
00000180: a064 65bd 9ceb e3bd 8302 9abf 06aa 3440
00000190: 40a2 1740 fce6 ca3d 92f7 8140 4448 0d41
000001a0: 0c86 23bf 6eda d6c0 998a 3c40 0135 52bf
000001b0: e6fc 2dbf e360 1040 2ac7 843c 03a0 f3bf
000001c0: 3573 2140 190d 99c0 45c4 c7bf 0853 5f40
000001d0: 90d4 62bf 2ce1 15c1 5524 3fbf 2de3 2e40
000001e0: 38fe 2b40 667d b440 b893 f63d a626 5040
000001f0: 8967 fcc0 14c9 033d da9a 4840 0f3c 7cbd

fc2.bias f4 [2]
0.23590864 -0.29147488
00000000: 0992 713e 323c 95be
