EdgeIIoT/binary/impurity/10/nn_model_deep.pth (torch, 22724 bytes, 6 tensors)

fc1.weight f4 [64, 10]
00000000: 1e5e ab3e 2998 b53e 7a91 a2bc 0996 bb3e
00000010: a021 4b3c 2268 43bc 1f2d 95bd 4c5e c43d
00000020: 15d8 b33e 60d6 26be 2392 ce3e ff70 413e
00000030: 871d a63e fe10 193e 5737 803e 61a3 c2bd
00000040: 92f5 ae3e c873 3f3d 2d8d 3ebd 4c34 3c3e
00000050: c3e3 b3bd c45d a53c dcb7 cabc f034 8a3e
00000060: 7000 3ebe ec69 12be f62e d0bc b879 95bd
00000070: 7b88 a43d 1617 87be 4945 af3e 77ff 57be
00000080: 05da ae3e f25b e83d 6cc7 85bd d095 7a3e
00000090: f271 b13d a3a4 a43e 367d ae3d e460 f6bd
000000a0: fb14 493e b4f7 d33c 2da2 723e b6d5 bd3e
000000b0: 256c 8b3e 6290 0dbe 334b 8b3e f0c1 673d
000000c0: 5774 7e3e 6500 e3bd 5346 a0be 3b77 03be
000000d0: 13bb 7ebe adac 813e 0ad7 ad3d 2621 063e
000000e0: 661f c03d 8042 b4bb 0411 773e 9813 66be
000000f0: d9ae c7bd 865c aabe ce8e 383e 5df9 05be
00000100: d4cd 173d 6041 4f3b 30b8 4f3e f7c3 58bd
00000110: bb1f 41be 362c 63be e322 d53e 04d7 703e
00000120: da5f b93e 0ba0 1cbe fa78 55be 2269 9cbe
00000130: eedd dbbd 4dbd 473d 226b 4a3e 1546 a93e
00000140: 0651 6ebe 02c0 5cbe 0800 913e 3afa 49be
00000150: 2e71 fd3d 5c63 b33c 5cda e63d ca94 f63d
00000160: 0f6a 23be 52b0 d43c 7b06 133e 5159 10bb
00000170: 363d 663e 34a1 8a3e abd6 23be 2fe0 2cbe
00000180: 4fac b73e 6e88 dabd dbd4 43bd e231 82be
00000190: d7a4 a5be 64d4 86bd ecd0 8b3d ec0d 6bbe
000001a0: 4524 fcbd 086a e6bd 1206 ccbe 37c6 82bd
000001b0: 52b4 8dbe cf2f 4ebe b993 183f 7d59 ac3e
000001c0: 3001 803e 7d33 bf3a 14e1 f0bb 7353 1cbe
000001d0: 90c1 7e3e 8377 8ebe 319e d53e c9f8 c13d
000001e0: 67ea 0dbe e2a9 80be dbb0 a13d ba6f 99be
000001f0: 67bf afbe 58d0 afbd 6f49 70be 431f 15be
00000200: ba09 383e 3c88 80bd 6cc8 cf3e dc80 6d3e
00000210: c17e 0abe 4db2 a83e b977 093c 5241 f8bd
00000220: 78dc 2bbe 9da0 bfbe 6193 3b3e f647 bc3c
00000230: f799 fcbc 5ad3 d0be f56b a93e 7914 9fbe
00000240: 9e71 2ebe 7a97 263e 7a56 413d bd1d b93e
00000250: d0b0 583e 8461 80be cc48 6ebd 563d 8bbe
00000260: 9dec 7f3d 22c5 8dbe a97f 5b3e d1f2 04be
00000270: 41f5 c23d e0d2 6a3e 84ba 7d3d 994d 53be
00000280: fec0 8c3e 7a50 703d 5160 f23c 3589 99be
00000290: a2b3 013e 2851 42bd f994 1abe f602 303e
000002a0: ac63 903d 1229 33be 81e5 23be 5b91 873d
000002b0: f24e 3a3e 0fa6 533a fbd9 ccbd 1ec7 ddbd
000002c0: 5196 1fbe acf7 e63d ece2 a63e 646d 98be
000002d0: 9b0b 903d e2be 223e c13f 903d ffe4 f3bd
000002e0: dbb0 0f3e 8950 843e 3dc3 bf3d 409b 63bd
000002f0: 0571 abbd 0b5d 9f3c a0bb 4a3c 6c4c d9bc
00000300: 92f5 8c3e 106f ac3e 6592 f93c 28f0 d8bd
00000310: b601 883d 0e45 1dbd 2196 063e 6445 183e
00000320: 23b6 adbe 1603 2fbe 1467 d13e 2d3d 683d
00000330: 12de 93bd 264a f53d 66e1 7fbe 4a08 91be
00000340: 4610 21be e6ee 5b3d 2f66 073e 1c04 9b3d
00000350: 509a 35be 186f 4cbe 1915 4bbe 26ea cb3e
00000360: ed66 d2bd d976 5c3d 362a b53d 0aac f6bd
00000370: b097 51be 9e59 6c3e 823d 13be 44d4 81bd
00000380: 4011 a1be aab8 583e ce55 753e 7c07 ec3d
00000390: 16ca 61be 48cb 9fbe b227 7abe 6343 803e
000003a0: a2eb 723e 9984 913e 010c 1e3e 910f 513e
000003b0: 853a 71bc 6bf2 e4bd 7244 90be 0f99 9dbe
000003c0: be05 c63c b5e9 89be 6319 2e3d bf74 81be
000003d0: be8a 17be a3ce 153d 4ff8 97be 1ec0 5b3e
000003e0: 8079 c0bd 16bb fd3d f42a 26be 5d72 78be
000003f0: f777 e53d 7cdd 5bbe 26e2 1dbe e422 9abe
0.33470243 0.3546765 -0.01984476 0.36637905 0.012398154 -0.011926683 -0.07283997 0.09588298
0.35125795 -0.16292715 0.40345868 0.18890761 0.32444403 0.14947888 0.2504222 -0.09503818
0.3417173 0.046741277 -0.046521354 0.18379325 -0.087836765 0.020186312 -0.024745874 0.26993513
-0.18554854 -0.14298218 -0.025413018 -0.07298607 0.08033844 -0.263848 0.34232548 -0.21093546
0.3415071 0.11345662 -0.06532177 0.24471211 0.086643115 0.32156858 0.08519976 -0.12030199
0.1963691 0.02587495 0.23694678 0.3707711 0.27230945 -0.13824609 0.2720581 0.056581438
0.24849068 -0.110840596 -0.31303653 -0.12838452 -0.2487605 0.25327054 0.08488281 0.13098583
0.09380989 -0.0055010915 0.24127585 -0.22468412 -0.097501464 -0.33273715 0.18023226 -0.13083406
0.037061527 0.003162466 0.20285106 -0.05292126 -0.1885976 -0.22184834 0.4162818 0.23519522
0.3620594 -0.15295427 -0.2084693 -0.3054896 -0.10735689 0.048764516 0.1976743 0.3306128
-0.23273095 -0.2155762 0.28320336 -0.1972436 0.12375103 0.021897964 0.112721175 0.12040098
-0.15958427 0.025962982 0.14357941 -0.0022025893 0.22484288 0.27076113 -0.15999858 -0.16882394
0.3587365 -0.10670553 -0.047810417 -0.25428683 -0.32352325 -0.06583479 0.06826958 -0.2295453
-0.12311605 -0.112506926 -0.3984838 -0.06385463 -0.27676636 -0.20135425 0.59600407 0.33662024
0.25000906 0.0014587488 -0.00735105 -0.15266208 0.24878526 -0.27825555 0.41722253 0.0947128
-0.13858949 -0.2512961 0.07895061 -0.29968053 -0.34325716 -0.0858466 -0.23465513 -0.14562707
0.1797246 -0.06275985 0.40582597 0.23193687 -0.13524915 0.32948533 0.0083903605 -0.12121834
-0.16783321 -0.37427226 0.1831794 0.022983532 -0.030835135 -0.40786248 0.33090177 -0.31070307
-0.17035529 0.16268721 0.04720161 0.361555 0.21161199 -0.250744 -0.058174893 -0.27195233
0.06248151 -0.27689463 0.21435417 -0.12983252 0.09519435 0.22932005 0.061945453 -0.2063507
0.2749099 0.0586705 0.029586943 -0.29987493 0.1266618 -0.047440678 -0.15095891 0.1718863
0.07050261 -0.17496136 -0.16005518 0.06619521 0.18194178 0.0008073756 -0.10002514 -0.10828994
-0.15584685 0.112777084 0.32595003 -0.29770958 0.070334636 0.15893129 0.0704341 -0.11908912
0.14032309 0.25842693 0.093634106 -0.05556798 -0.08371166 0.019453546 0.012373835 -0.026525699
0.27531105 0.33678484 0.030465314 -0.10592681 0.06640951 -0.038395934 0.13143207 0.1487022
-0.33928022 -0.17091021 0.40898955 0.056698967 -0.07220091 0.11977033 -0.24988326 -0.28326637
-0.15728864 0.05369463 0.13222574 0.07569143 -0.17734647 -0.19964254 -0.19832267 0.3982708
-0.10273538 0.05382428 0.08845942 -0.120445326 -0.2046802 0.23081061 -0.14378932 -0.063393146
-0.31458473 0.21164194 0.23958513 0.11524865 -0.22049746 -0.3120978 -0.24429205 0.25051412
0.237227 0.28421476 0.15434267 0.20416094 -0.014723425 -0.1117905 -0.2817722 -0.30780837
0.02417266 -0.26936117 0.04250468 -0.25284383 -0.1479902 0.036574017 -0.29681632 0.21460006
-0.09398174 0.123891994 -0.16227323 -0.24262376 0.11204522 -0.21471208 -0.154183 -0.30104744

fc1.bias f4 [64]
00000000: d796 0f3c bd28 48be d980 e63e e06f c43e
00000010: 763c 51be 7805 21be 15fe 803e 28db a8bc
00000020: a8b6 103e 9e18 cabd ae88 d53e cf2d ac35
00000030: 1f60 d53e c39b 403c d5ac 5d3e 0b39 d53e
00000040: 77ec 91bd 25db 32be 796a e6bc 8e5f bd3e
00000050: da3e adbd c162 933e 561f 9fbe 9360 b73e
00000060: f1f3 913e 684a 863e 8e97 8b3e 1c8f 11bb
00000070: 8206 b03e 912b 80be 08a7 213e 8e7f 143e
00000080: 789a fb3e dfad cf3e bb78 6bbe 73ab 6f3e
00000090: de6b 90bd fc30 02bd d92c 59be 88d9 3e34
000000a0: 37e7 9f3e 12d9 e43d cf9b 3cbe 853c 4a3e
000000b0: e04e 98bc a0b6 e73e 8287 8cbe b258 19bd
000000c0: 8239 3a3e 057c 87bd 2d9c 713e 8101 e03e
000000d0: e2b6 28b3 0b93 ec3e 3a81 e93d 3714 933e
000000e0: c5f2 a33e 9560 d53e 2aa9 10be a61e 8c3e
000000f0: 83dd b83e d3e1 cdbc d486 1abe dccc 87be
0.00876399 -0.1954679 0.45020178 0.38366604 -0.2043322 -0.15724742 0.2519385 -0.020612314
0.14132178 -0.098679766 0.4170584 1.2828331e-06 0.41674897 0.0117558865 0.21647961 0.41645083
-0.0712518 -0.1746641 -0.028126942 0.36986965 -0.084592536 0.2878628 -0.31078595 0.35815868
0.28506425 0.26228642 0.27264065 -0.0022210544 0.34379965 -0.2503324 0.15786374 0.14501783
0.49141288 0.4056234 -0.22995274 0.23405246 -0.07051824 -0.031784996 -0.21208514 1.7774266e-07
0.3123109 0.111742154 -0.18418811 0.19749649 -0.018592298 0.4525652 -0.27447134 -0.037438102
0.18186 -0.06615452 0.23594733 0.43751147 -3.928188e-08 0.46205935 0.11401601 0.2872636
0.32021156 0.4167525 -0.14127031 0.27367133 0.361065 -0.025132095 -0.15090495 -0.26523483

fc2.weight f4 [64, 64]
00000000: d119 f93d adef e93b 716b 023e 7cac c63d
00000010: 1b95 9f3b 3c85 0b3d 8d72 debd e767 273e
00000020: 2d1e 05bd 399f 31bc 0a04 203d 077d c23e
00000030: c1ca 3bbd ccd9 71bc 80d0 0bbe ae70 99bd
00000040: d2dd b33d 0733 393e 972d 9b3d 28c0 343e
00000050: dbcd 29be aca1 953d c82a 363d 14f4 41bd
00000060: e465 2bbe 9977 82be 977c ee3c afc8 babc
00000070: 3e55 52be 4e69 8f3d 33db bdbc d022 4b3e
00000080: d6e6 0abd 995f 0b3d 1853 833d 3a6c 443e
00000090: bc2c 993d 0fba f43d 3bd8 7cbc 2d3e 693e
000000a0: 827d 513c 38d1 0a3c 4410 b33d 0151 29bd
000000b0: 04e1 063d 82c6 81ba 1c8c 213d 6440 0b3e
000000c0: a95c 0e3f 356f dd3d c8eb 473d afd0 0ebe
000000d0: e488 c43d d419 123e 92fd 1cbd c055 5d3e
000000e0: 854a e83c 998c fbbd 9d31 a13d 7f9d 2b3c
000000f0: 969e 02be 4d34 3d3e 7006 083d 12c5 efbd
00000100: fa1d c7bc cb3e 433e 442a 833d 5413 823d
00000110: fd6b 9f3a d4be 3abd 474d f4bd 9aa7 293d
00000120: 9384 3dbe 0b1a 923d a346 a5bd aef9 1a3e
00000130: 877a 9abd 0e78 4f3c ebfd 60bd e578 3cbd
00000140: c216 e9bc 8536 5cbd 0b91 ad3d 5671 803d
00000150: 13f5 26be e3ea af3d 0c8d 67bd c94c e73d
00000160: 3c36 09bd 5a22 8dbe fcb9 d43b 4241 66bd
00000170: 3bc8 24be 50b7 aabc 848c 36be 946a 343e
00000180: 0fd0 76bc ae66 993d e095 e4bd d93f ee3d
00000190: 0c1f 1fbd 09e9 32bd 6047 a5bc 10b5 063e
000001a0: 369e 1e3e b1b7 2fbd 18f5 7bbd 475b 293d
000001b0: c84b c63d 4aa4 29bd 1683 8c3d 80ee f13c
000001c0: 3469 0b3f 7902 273e 7185 afbd 1221 2cbb
000001d0: cd69 f33d 4c59 123e 2aec d9bd 2e1c 36bc
000001e0: 2b98 303c bd90 adbd 2a86 f33d 83ca a3bc
000001f0: e6ed 05bd a426 0e3d e8a6 9a3d 8077 c2bb
00000200: b60c da3d c4ba 913d 08b5 2abc 68c5 c73d
00000210: dbe1 7f3d c0a2 2abc 6bc3 aabd 9603 203e
00000220: 84f1 b6bd 4d54 5c3d c0b7 43be f73c d53e
00000230: 22d9 04be 71ea 5a3e 437a 49bd c7ac d8bd
00000240: 05f1 153e c225 823e 51e7 d53d b56a 8e3d
00000250: f30d a5be 685f 1c3d a8ac 7dbd 863e 073e
00000260: f6bd e9bc daa8 5ebe 75fb 9c3d 56ca 963e
00000270: edce 6ebd f087 babd 99ea 353d 0ead d73d
00000280: 292c 9fbc 3702 973e f859 c63d 1e92 4d3e
00000290: 6060 003c a721 0f3e f7d9 4fbd 5808 8d3e
000002a0: 7325 553e 35ab 9d3d 78a2 d4bc 7bd8 1abd
000002b0: 5659 963e 16bc 7fbd 088c a63d 049e 323e
000002c0: 6980 a53f 7386 913e 1dbf 5abd 0ec6 acbb
000002d0: 4c03 633e d24b 833e e5dc 053e d14c 053e
000002e0: 1308 e33c c180 76bd 6ed1 813d 3012 403e
000002f0: 8d6b bbbd d800 083e 06c9 ba3d 8c9c 1f3d
00000300: 2a93 4cbd 148c 52bd b38c 15bd 41a8 5cbd
00000310: 7833 e63d d696 873d 6a29 e73d 0cfe a8bb
00000320: d082 ce3c 248b 313d d1b2 fdbd 20e1 363c
00000330: 88f2 63bc 0687 8fbd ab06 d2bd 243f d73d
00000340: 05c3 c43d c44b 6d3d b649 f43d 408a 66bd
00000350: 38de b0bc 4cda 413d 2831 a9bc c8f1 c8bc
00000360: 9efb debd f88d 093d 0717 a6bd 4f81 84ba
00000370: bf35 ee3d f899 1dbd f420 38bd 7510 8f3d
00000380: bcf2 52bd 0879 85bc 7c09 ef3d 3bac 68bd
00000390: 2025 b7bd 76a6 9abd 24f3 0dbd 80f1 72bd
000003a0: 143a 90bd f00d 383d 2804 ae3c 77a2 3abd
000003b0: 9045 d2bd e9f9 37bd 8415 58bd 509d 26bd
000003c0: 88f1 e6bd 9411 af3c d816 bcbd 16ba d2bd
000003d0: ce8a dcbd e9ee 3e3d 9a80 a5bd 4318 6abd
000003e0: 2948 bd3d 0416 793d c4c9 923d 2271 febd
000003f0: baf5 c2bd 2049 41bd 227b d33d e082 513c
0.12163127 0.0071391673 0.12736298 0.097008675 0.0048700697 0.03406261 -0.108616926 0.1634823
-0.03249948 -0.010841184 0.039066352 0.37986013 -0.045847658 -0.0147613995 -0.13653755 -0.07492195
0.08782543 0.18085872 0.07577055 0.17651427 -0.16582434 0.07306227 0.044474393 -0.04735191
-0.16738087 -0.2548187 0.029112143 -0.022800772 -0.2054033 0.07002507 -0.023175811 0.19837499
-0.03391155 0.034026716 0.06412333 0.1918191 0.074792355 0.1194955 -0.015432413 0.22777624
0.012786271 0.008472733 0.08743337 -0.041337017 0.032929435 -0.0009901079 0.03944026 0.13598782
0.5561014 0.10812227 0.048808843 -0.13946794 0.09596422 0.14267665 -0.03832776 0.21614742
0.028355846 -0.12282676 0.07870791 0.010474562 -0.12755808 0.18476982 0.033209264 -0.1170751
-0.024306286 0.19066922 0.06404546 0.06351343 0.001216292 -0.045592144 -0.11928802 0.041419603
-0.18507604 0.071338736 -0.080701135 0.15134308 -0.075429015 0.012662901 -0.054929655 -0.04601373
-0.028453235 -0.05376293 0.084749304 0.06271617 -0.16304426 0.08589723 -0.056530997 0.112939425
-0.033498988 -0.2756527 0.0064918976 -0.05621458 -0.16092007 -0.020839363 -0.1782704 0.17618781
-0.0150642535 0.07490288 -0.11161399 0.11633272 -0.038847968 -0.04367927 -0.020175636 0.13155007
0.1549004 -0.04289979 -0.061513036 0.041346814 0.09682423 -0.041416444 0.0686094 0.029532671
0.544574 0.16309537 -0.08570374 -0.0026264829 0.11885414 0.14291877 -0.10640748 -0.011115117
0.010778467 -0.08474872 0.11890824 -0.019994026 -0.03269758 0.03470482 0.07551366 -0.0059346557
0.10646956 0.07115701 -0.010419138 0.09754449 0.062471252 -0.010414779 -0.08338054 0.15626368
-0.08932784 0.053791333 -0.19113064 0.41648075 -0.12973455 0.21378495 -0.049188863 -0.1057983
0.14642723 0.25419432 0.10444511 0.069539465 -0.32237205 0.038176924 -0.061932236 0.13207445
-0.028532963 -0.217441 0.07665149 0.29451245 -0.05830281 -0.09107959 0.044413183 0.105310544
-0.019430237 0.29493877 0.09685129 0.2007527 0.007835478 0.13977681 -0.050744977 0.27545428
0.20815067 0.07698671 -0.025956377 -0.037804108 0.29365033 -0.062435232 0.081321776 0.1744309
1.2929813 0.2842289 -0.053404916 -0.0052726334 0.22169226 0.25643784 0.13072546 0.13017584
0.027713811 -0.060181383 0.06338774 0.18756938 -0.09151373 0.13281572 0.091203734 0.038967654
-0.049945034 -0.05140312 -0.036511134 -0.053871397 0.11240286 0.066205665 0.11287196 -0.005157238
0.02520886 0.043345585 -0.12387622 0.011162072 -0.013912804 -0.070081756 -0.10255178 0.1051009
0.096075095 0.057933584 0.11928122 -0.05628419 -0.021590337 0.047327325 -0.020653322 -0.024529353
-0.10887836 0.033582658 -0.08109861 -0.0010109338 0.11631345 -0.038476914 -0.0449533 0.06985561
-0.05150102 -0.016293064 0.11671731 -0.056804877 -0.08942628 -0.07551281 -0.034655705 -0.059312344
-0.070423275 0.044935167 0.021242216 -0.045565095 -0.10267174 -0.044916067 -0.052754894 -0.04067737
-0.11276537 0.021370687 -0.091840446 -0.10289399 -0.107686624 0.04661456 -0.080811694 -0.057152044
0.09242279 0.06081201 0.0716739 -0.12423922 -0.09519525 -0.047188878 0.1032622 0.012787551

fc2.bias f4 [64]
00000000: f823 34bd 1ef1 7c3d 974c e3bc aef2 213d
00000010: 538a 4d3e 0148 093e c0cc 2f3d eb46 e13d
00000020: 77c5 a63d 2088 153e dda6 33bd b44b 6a3e
00000030: a982 96bc ed11 863c 2321 343e 801b d83d
00000040: 6e6f 903d 647c 5d3f 1e0c 923c 901b c83d
00000050: fa84 9abd dfab d23d 1e9b 2e3e afee 923d
00000060: f092 41bd bf98 57bc 12b5 e6bd c6cf 4a3d
00000070: f6fa 943d 9292 c03c 1763 bf3d cdb4 4a3d
00000080: 7414 8f3a a178 a1bc 9830 093e 40e0 383d
00000090: 6e5a 213e 86ff 613e 2a19 4abc 747d 96ba
000000a0: 7019 033e c181 43bc 5ab3 ff3d baa8 973c
000000b0: b057 603c 53eb 843d 179e af3c 7081 9c3d
000000c0: f391 00be d61b 52bc 95e4 483d cbd3 103e
000000d0: 24d4 7f3d 7537 333e 5d3f 803d 11a2 e53d
000000e0: 5230 5dbc 0000 803d 13ed fbbc 665e 7f3d
000000f0: 09d1 38bd 913c 823d 5c71 0a3d bd25 493c
-0.043979615 0.061753385 -0.027746482 0.039538078 0.20072298 0.13406374 0.042919874 0.10999855
0.08143132 0.14602709 -0.043860305 0.22880441 -0.01837285 0.01636597 0.17590766 0.1055212
0.070525035 0.8651793 0.017828044 0.09770882 -0.075448945 0.10286688 0.1705136 0.071744315
-0.04725927 -0.013158976 -0.11265005 0.049514554 0.072744295 0.02350739 0.09345072 0.04948883
0.001091613 -0.01971084 0.13397443 0.045135736 0.15757152 0.2207013 -0.012335101 -0.001148148
0.12802672 -0.011932791 0.124853805 0.018513072 0.013692781 0.06490197 0.021437688 0.07641876
-0.12555675 -0.012824019 0.049046118 0.14143293 0.062458172 0.17501624 0.062620856 0.11212552
-0.01350029 0.0625 -0.030752694 0.062345885 -0.045121226 0.063592084 0.033799514 0.012277064

fc3.weight f4 [2, 64]
00000000: cf1d 573e 2049 973d dbee 843e c682 25bd
00000010: 7c89 88be ed84 acbd cc57 543d 81df 383e
00000020: a5c4 f7bd 9fbf f1bd 6dbf 0bbb add1 8dbe
00000030: 1e69 e13d 38ac 3f3e 6f96 2fbe 84ef 3bbe
00000040: 4ab0 e83d 66ea d4bf 696f f8bd 89ae b7bd
00000050: 5601 e8bd cf3d ecbd e084 07be 0b52 663d
00000060: 6487 813d d342 8ebd b84e d2bc 044c 14be
00000070: 68d2 53be a00b 22be d871 313e c9db 063d
00000080: 6ccb 193e 56d7 283e 59d0 e93d cb5f 1cbe
00000090: 959a 42be 4d41 71be 771e 943d d973 35be
000000a0: 907a 1e3e 92df 9f3d 4388 283e 69cf 53be
000000b0: 0d12 093d 56e0 3e3c 0bfb 133e b67f 3a3e
000000c0: 3f84 5e3d a00e e23d b103 093e 497b 5dbe
000000d0: 9819 a3bc 4dbf 82be b6b9 163e e709 0d3c
000000e0: 2cd4 573d af5a 8bbe 9d3d c2bc a2ed 3e3e
000000f0: fe8a f93c 915a 643d e83d fa3d 1db2 953d
00000100: c99e adbd fdbe 4bbe e84a debe 60d6 c6bd
00000110: fd1a 2a3d 3b9f 693e caf5 cbbd 6bf0 3dbe
00000120: 3c7c 493e d2f1 5f3e dc5a 92be f91f 513d
00000130: da9f 45be a08f 57bd 1710 563e 11de 473e
00000140: f114 babc 0475 373f bd82 683e bd01 7abc
00000150: c06a 403c b685 25bc 9a89 0d3e 21f7 2a3d
00000160: c016 59bc c197 cd3d d899 04bd 8696 3a3e
00000170: 2c02 893e 835b 503e ca88 44be 07dd 60be
00000180: 3f23 ffbd 9e7d dbbd 2987 fbbd 60b8 413e
00000190: e7a8 093e 4970 503d cac8 89be 554d 993e
000001a0: da12 23be 57b2 41be bc08 49be 1fc5 813e
000001b0: 0c63 5f3d 76dc 66be b0b1 8dbe 3814 e0bc
000001c0: 4153 313d eb8d 4ebe 85f4 e9be eb29 2a3e
000001d0: 7ef9 64be c2cd 3f3e f037 5fbe 41f9 6cbe
000001e0: d079 74be 0c50 803e 7dd0 d13d 2dc4 71be
000001f0: a993 b63d 23d4 5fbe 8d72 67be f5de aa3d
0.21007465 0.07386994 0.25963482 -0.04040792 -0.26667392 -0.08423791 0.051841542 0.1805401
-0.12098054 -0.11804127 -0.0021323815 -0.27699032 0.11006378 0.1871804 -0.1714723 -0.18353087
0.113617495 -1.6634033 -0.12130625 -0.08968837 -0.1132838 -0.115352266 -0.13234282 0.056230586
0.06324652 -0.069463395 -0.025672302 -0.14482123 -0.20685732 -0.15824747 0.17328584 0.032924447
0.15019006 0.16488394 0.11416692 -0.15270917 -0.19004281 -0.23560067 0.07232373 -0.17719974
0.15476441 0.078063145 0.1645823 -0.2068459 0.03346448 0.011650166 0.14451234 0.1821278
0.05432534 0.11037946 0.13380314 -0.21629061 -0.019909665 -0.25536576 0.1471928 0.008608318
0.052692577 -0.27217624 -0.02371102 0.18645337 0.030461784 0.055750433 0.12218839 0.07309363
-0.084775515 -0.19897075 -0.43416524 -0.097088575 0.041529644 0.22814648 -0.0995899 -0.18548743
0.19676298 0.21869591 -0.28584945 0.051055882 -0.1929926 -0.052627206 0.20904575 0.19518305
-0.022715064 0.71662927 0.22706123 -0.0152592035 0.011744201 -0.01010268 0.13822022 0.041739587
-0.013250053 0.100387104 -0.03237328 0.18221483 0.2675947 0.20347409 -0.19192806 -0.21959315
-0.124578945 -0.10717319 -0.12281639 0.1891799 0.13443337 0.050888333 -0.26911002 0.29941812
-0.1592516 -0.18915688 -0.19632238 0.25345704 0.054537818 -0.22545037 -0.27674627 -0.027353391
0.043292288 -0.20171325 -0.45694366 0.16617553 -0.22360799 0.18730834 -0.21798682 -0.23141958
-0.23874593 0.2506107 0.10244844 -0.23609991 0.08914883 -0.21858267 -0.22602291 0.08343307

fc3.bias f4 [2]
00000000: 8d1a 353d 4bc7 783d
0.044214774 0.060736936
