EdgeIIoT/binary/impurity/10/nn_model_simple.pth (torch, 5520 bytes, 4 tensors)

fc1.weight f4 [64, 10]
00000000: 13f2 abbd 7dd9 a53e a5d0 35be b7ea 13be
00000010: 2f0c 813e 2ce2 a6bd 3ac9 02be 986b 483d
00000020: 68de 5abd 8200 4c3e 82a2 af3e c1be 693e
00000030: cb7f 033d 7bc6 1e3e 25e8 813d d373 8dbd
00000040: 4133 7b3d 9a2d 883d 71a4 823e 4e98 103d
00000050: d630 7b3e 7eb0 173e 72a7 2a3e 14b2 be3e
00000060: a1c2 00be fff7 65bd d624 c93c d148 9ebe
00000070: 4f69 4bbe b4a6 613d 841c ab3e 7f05 c5bd
00000080: a76a 0c3e 10ca 8f3e 77fa 1abe 8746 463c
00000090: 3729 0e3e 160d d3be 0135 a83d c171 58be
000000a0: 38d3 c93e 91fc 883e 81ef 203e 1283 b33e
000000b0: f67a a83e 71d3 393e c416 5f3e 00ca 69be
000000c0: 952d c83e e8a8 3a3e 5b99 4dbe cd10 48be
000000d0: 7ca4 de3e d43f 32bc 9236 313e 06ea 3c3e
000000e0: 1af8 703e 86f2 6cbe 2102 763b 2b08 a1bb
000000f0: 24eb 96bd 64c7 573e 9b16 143d 671f 4cbd
00000100: 9f27 263e 4980 8b3d eb88 97bd e61c fabd
00000110: ac00 80bd bc43 54be 6b98 0d3f b5aa 263f
00000120: f270 8e3d 3e42 283e 0568 e23e 6136 0abe
00000130: 5184 d63e 10ff 323d 3830 953e f011 f83d
00000140: 5def 6a3e 9084 5d3e d571 8a3e 0240 dd3d
00000150: d840 5d3e abd3 8abe cc9b b33d 006d 983d
00000160: 9043 893e 89e0 dfbd d7ab 56be 5412 9fbe
00000170: 021b 463d db1f 66bd b1ec fcbd 5ecc a03e
00000180: f506 37be 11a9 7d3e 58a3 0abe 51d6 10bb
00000190: 254f eebe 6019 47be f6df 953e b783 8cbc
000001a0: 2970 f1be 18f5 cc3e 72b4 07bf 1a0b f53e
000001b0: ebec 803c ca13 d4bd 7c6a 0bbe f0c3 17bf
000001c0: b97b 173e 5000 94be 479a 0fbf e456 053e
000001d0: d603 43bd 1e5a 703e 3c1e 163e ffbe 91be
000001e0: 16a9 7e3e 8e52 ca3e ad53 b33e 2eb2 16bc
000001f0: 8c97 45be 684b 63be dc54 a73e e757 983c
00000200: 5ddb cd3e 3b8c 08be 6acf f2be 9b74 03be
00000210: f98a 9f3e da63 90be 09c0 223d 284b 273d
00000220: 55e4 03bf 29c2 a03e 35e8 81be 0019 1abe
00000230: 8e50 87be d201 acbb ad7d f03d 362a 073e
00000240: 6008 78be 85be 0e3d 8c76 6d3e 9731 27bb
00000250: 715a 40be 88ff 06be 7989 efbe 16fa ddbe
00000260: 9532 e13e 4eca 87bd a197 36bd 75f3 8c3e
00000270: dd53 b63d 1112 d63e f41c d23d aab5 3f3c
00000280: 0e2c cc3e c8f8 bb3e 5a46 ff3b 6b3b 393e
00000290: 1f50 06bd 9d6c a3be bda6 dd3e 5ab8 ccbe
000002a0: b03a 63bd 9fa3 2ebe f4f1 01bf 32b2 53be
000002b0: 2f34 bc3e 9529 b3be 7bd0 6cbe 5e6e 64bd
000002c0: 0f46 49be e696 da3e 3448 55be cb29 0ebe
000002d0: 7023 a2bd e3fe efbe c01b 443e ca4e cbbe
000002e0: 95c4 c0bc 8609 993e ef1c bdbe 599d ff3e
000002f0: df3a 963e 5915 86bb 31ca debe 259d 9fbe
00000300: dc8a f43e f2a1 20bc f02c b2be 444f dc3e
00000310: 66dc e6be 94ae bd3e 5ab1 113c d385 1cbe
00000320: 061f 83be 59ee b63d 7ab3 0d3e f8be 5b3e
00000330: beff 51be 6617 74bd 0cad 5ebc 7075 62bd
00000340: 1b68 8dbd d05b e9bd 4f33 963e 7182 ab3e
00000350: 3ee1 d03c 3669 d83e 921b 1d3e 7eba a4bc
00000360: abe3 6f3e 0283 dcbd fca1 1a3e abf6 f43d
00000370: b4eb f43d 3ef8 2dbe 70a5 14be 7748 9cbe
00000380: e7dd 0cbe 306e ce3d 2bde 823e b19e 9fbe
00000390: 88fc e8bd 62ba 4b3e b21a 803e 03e0 1d3f
000003a0: b296 bf3d fb5d b43d e292 953e 6f18 42be
000003b0: 28aa 993e 6212 91be 57e3 f63e 5c1b 513e
000003c0: 84e7 a13d 6e66 a0be 7072 90be 24ff d63c
000003d0: 85fa 983d 3e3d 6b3e 9189 c3be 1198 163e
000003e0: bd65 60be a467 a5bc cb96 5d3e 4325 c53e
000003f0: 6356 af3e c54e ce3b 022b c23e 3329 843d
-0.08395781 0.32392493 -0.17755373 -0.14445005 0.25204608 -0.081486076 -0.12772074 0.048930734
-0.05343476 0.19922069 0.3430367 0.22826673 0.032104295 0.15505402 0.06343106 -0.06906857
0.061328176 0.06649323 0.25516084 0.0353015 0.24530348 0.1481342 0.16665438 0.37245238
-0.12574245 -0.05614471 0.024553698 -0.3091493 -0.19864391 0.05509062 0.33420193 -0.09620189
0.1371256 0.2808385 -0.15134607 0.012101776 0.1388291 -0.4122092 0.08213235 -0.21137144
0.3941896 0.26755193 0.15716363 0.35060936 0.32906312 0.18147065 0.21786028 -0.22830963
0.39097276 0.18228495 -0.20078032 -0.19537659 0.43484867 -0.010879476 0.17305973 0.18448648
0.23532143 -0.2313939 0.003753789 -0.004914304 -0.07369068 0.21072155 0.03615437 -0.049834635
0.16226052 0.06811578 -0.07399162 -0.12212543 -0.06250128 -0.20728964 0.55310696 0.6510423
0.06955136 0.1643152 0.44219986 -0.13497306 0.41897824 0.043700278 0.2913835 0.12112796
0.22942872 0.216326 0.27039972 0.10803224 0.21606767 -0.27114615 0.0876995 0.07442665
0.2680936 -0.109314986 -0.20963989 -0.3106867 0.0483656 -0.056182723 -0.12349833 0.3140592
-0.17873748 0.24771525 -0.13538873 -0.0022100399 -0.46544757 -0.19443274 0.2927243 -0.01715265
-0.47155884 0.40030742 -0.5300971 0.47860032 0.015737971 -0.10355337 -0.1361484 -0.5928335
0.1479329 -0.28906488 -0.56094784 0.13021427 -0.04761108 0.23471877 0.14659971 -0.2846603
0.24869189 0.3951611 0.35024777 -0.009197755 -0.19296092 -0.22196734 0.3268193 0.018596603
0.40206423 -0.13334744 -0.4742387 -0.1283745 0.31160715 -0.2820118 0.03973392 0.04084316
-0.5152028 0.31398132 -0.25372472 -0.15048599 -0.26428646 -0.0052492404 0.11742721 0.13199696
-0.24221945 0.034849662 0.23189753 -0.0025511736 -0.187845 -0.13183415 -0.4678457 -0.43354863
0.43983904 -0.066303834 -0.0445782 0.27529493 0.089027144 0.4181066 0.102594286 0.011701027
0.3987736 0.36713243 0.007790369 0.18089072 -0.032791253 -0.31918803 0.43291274 -0.399844
-0.05547589 -0.17054604 -0.50759816 -0.20673445 0.36758563 -0.34992662 -0.23126404 -0.055769317
-0.19655631 0.4269325 -0.20828325 -0.1388313 -0.079169154 -0.4687415 0.19151211 -0.3970855
-0.023531238 0.29890078 -0.36936137 0.49924734 0.2934179 -0.0040919003 -0.43513635 -0.3117458
0.4776219 -0.009804236 -0.3479991 0.43029225 -0.45090026 0.37047255 0.008892382 -0.15285425
-0.25609607 0.0893218 0.13837996 0.21459568 -0.20507714 -0.059592627 -0.013591062 -0.05528778
-0.06904622 -0.11394465 0.2933602 0.33497956 0.025498029 0.4226777 0.15342548 -0.020108458
0.23426692 -0.10767175 0.15100855 0.11961111 0.11959019 -0.16989228 -0.14516234 -0.30524036
-0.13756524 0.1007961 0.25560126 -0.3117576 -0.113762915 0.19895318 0.25020367 0.6166994
0.09354915 0.08806988 0.29213625 -0.18954633 0.3001263 -0.28334337 0.48220322 0.20420593
0.07905486 -0.31328148 -0.2821231 0.026244707 0.07469658 0.22972581 -0.38190892 0.14706446
-0.2191381 -0.020191021 0.21639554 0.3850499 0.34245595 0.006296011 0.37923437 0.064531706

fc1.bias f4 [64]
00000000: 2095 0cbe deb6 0e3d 4a9d 0fbd 8f9d 423d
00000010: 4ef1 a1bc 92ca b7bd 3612 ca3e 2813 013b
00000020: 770f ebbd 8298 023f d9e8 403f daeb 2c3f
00000030: 7bd1 cfbc 30b4 d03e 7314 bd3e 11bd fb3e
00000040: 4960 23ba c105 f93e ae22 d73e 9c00 d13e
00000050: 8443 bfbd 7f80 70bb b606 ddbd d46f 18b9
00000060: f9f7 163f 5466 5cbb 4dec 7e3d 8ff0 fe36
00000070: 19e1 3c3f f296 a0bd f336 9ebe efc4 233f
00000080: c717 2535 a3c1 613f aaa1 41bc 3593 e03e
00000090: a7c9 9d3e fea6 c03f 5c23 053f eec4 083f
000000a0: 2c51 6234 cb1d b635 3784 7d3d 0c97 223b
000000b0: ccdf e73d b059 94bd b7a9 94be 8b57 5935
000000c0: dd14 e4bb 657e a03b ffaf 43b3 f405 ab3e
000000d0: aaa5 03b2 02ed 81bd 9aba 433c e3f9 38be
000000e0: e734 5ebe 64da 69bc 4a40 9fbe 7aa2 a43d
000000f0: f9b7 3dbc e486 1240 3d43 ae3e e9f5 f83e
-0.13728762 0.034842364 -0.035062112 0.04751354 -0.019768383 -0.08974184 0.3946702 0.0019695256
-0.11477559 0.5101396 0.753553 0.6754738 -0.025368443 0.40762472 0.36929664 0.49167684
-0.0006232304 0.48637202 0.42018646 0.40820777 -0.093390495 -0.0036697683 -0.10792296 -0.00014537509
0.58972126 -0.0033630328 0.062237073 7.5977946e-06 0.7378097 -0.078412905 -0.30901298 0.6397237
6.150189e-07 0.8818609 -0.011818329 0.4386231 0.3081791 1.5050962 0.5200708 0.5342549
2.107742e-07 1.3568728e-06 0.061893668 0.002480927 0.11321983 -0.07243669 -0.29035732 8.096619e-07
-0.006960495 0.00489788 -4.5562043e-08 0.3340298 -7.662871e-09 -0.06344034 0.011946345 -0.18064074
-0.21699868 -0.01427326 -0.31103736 0.080388024 -0.011579507 2.289483 0.34035674 0.48625115

fc2.weight f4 [2, 64]
00000000: 59d8 673d a500 4c3a c829 293e a0c0 1e3e
00000010: e03c 593e ea3c 32be d27c 50be 00b4 2f3e
00000020: 79e2 f83d 7097 e6be af5e e4be 5778 18bf
00000030: 6546 603e ceb6 23bf 58b4 6bbe 3497 bcbe
00000040: 610e 313e 5baf 03bf 23a2 d0be 302d b3be
00000050: 52c4 e93d 12e3 793e 042c f93d ba0f f33e
00000060: 0eda 0dbf 1cd7 843c 89b4 d13d 9fb1 b63f
00000070: d1a5 f6be cbc0 8cbc d89e a5bc 2e10 d6be
00000080: 6804 c13e 1732 a2bf ef1a 323e d142 c5be
00000090: 9b90 39be a7ec 0dc0 4da9 d6be 28f4 f3be
000000a0: 2be7 aa3d b985 873e 7d3c e5bc d5fd 983d
000000b0: 68a5 113d 611e 2a3e cc14 cfbd 3e30 983e
000000c0: 73f6 4d3d 0feb 4a3e cc29 fc3e 5f46 cebe
000000d0: 2045 563e e959 be3e 7c64 a43d 38e2 793e
000000e0: c96d e2bc 5faf 943d 122c d3bd 9e4b 9fbd
000000f0: 7db3 2a3e 9050 29c0 73e1 06be 5c2b 12bf
00000100: 4867 c7bd 617b ebbd 918c 7fbe 370a 3dbe
00000110: 5039 41be 0dc9 5a3e 29d0 0abc 94d3 ddbe
00000120: ed1a 4ebd a731 f53e 0d72 c23e c569 f93e
00000130: 1964 37be 4f10 073f 962a da3d 2ce6 a43e
00000140: 57f0 2ebd 66cb 8e3e 0bbd 013f 2f03 993e
00000150: 9dc1 aa3d 309e 68bd 66b3 d63d f361 bebe
00000160: e044 e93e a1a6 49be f163 26be 2214 1dc0
00000170: e8d3 4d3e cee2 9c3d 0074 3f3c 1fed 613e
00000180: cc4b eabe 9759 463f 95ee a8bd 9f03 c73e
00000190: f992 f23d 10ec da3f 16cf a63e 7be4 a23e
000001a0: 6936 f8bd 114a e7be 69ff 4f3d 2bfb 70be
000001b0: 734b 4ebe ce42 03be 0098 8c3d 9a1c e3be
000001c0: 2f2f 8b3c b295 05bf 9b06 d9be ccb9 973e
000001d0: 724f fbbd 0d0c cebe d4b1 3fbe be4b e9bd
000001e0: 9a13 3fbd 6ac7 43be b893 f63d 7a26 4abd
000001f0: fbba 4bbe e505 f33f 9b69 993d 9877 b13e
0.05660281 0.00077820785 0.16519845 0.15503168 0.21214628 -0.1740605 -0.20360115 0.17158508
0.12152571 -0.45037413 -0.44603488 -0.59558624 0.21901853 -0.6395081 -0.23018014 -0.3683411
0.17290641 -0.51439446 -0.407487 -0.34995413 0.11414398 0.24403027 0.121665984 0.47472936
-0.5541085 0.016215853 0.102395125 1.4272956 -0.48173383 -0.017181775 -0.020217344 -0.4180922
0.37698674 -1.2671536 0.17393087 -0.3852754 -0.18121569 -2.217569 -0.4192604 -0.47647214
0.08344873 0.2646921 -0.027982945 0.074702896 0.035558134 0.16613151 -0.101113886 0.29724306
0.05028386 0.1981623 0.49250638 -0.40288064 0.20924807 0.3717797 0.080269784 0.24402702
-0.02764024 0.07260012 -0.1031114 -0.07778095 0.16670032 -2.6455421 -0.1317194 -0.5709741
-0.09736496 -0.11498142 -0.24955966 -0.18460928 -0.18869519 0.21365757 -0.008472481 -0.43325484
-0.050318647 0.47889444 0.3797764 0.48713508 -0.17909278 0.5275926 0.10652654 0.32206857
-0.042709675 0.27889556 0.5067908 0.2988524 0.0833771 -0.056791484 0.10483436 -0.37184104
0.4556036 -0.1969247 -0.16249062 -2.4543538 0.20100367 0.07660447 0.011685371 0.22063111
-0.45760953 0.77480453 -0.08248631 0.3886995 0.11844439 1.710329 0.3257987 0.31814942
-0.12119753 -0.45173696 0.050780687 -0.23533313 -0.20145969 -0.12818453 0.06864929 -0.4435776
0.016990272 -0.5218154 -0.42387852 0.2963394 -0.12271012 -0.4024357 -0.1872018 -0.113914
-0.046649553 -0.19119039 0.12039894 -0.0493531 -0.19895546 1.8986174 0.07490846 0.34661555

fc2.bias f4 [2]
00000000: b18e 95be 0aae 2ebc
-0.29210427 -0.010661611
