CIDDS/binary/impurity/10/nn_model_deep.pth (torch, 22724 bytes, 6 tensors)

fc1.weight f4 [64, 10]
-7.1066136 0.17125271 -1.5268439 0.32023495 0.93301374 -0.044333417 0.29450765 -0.030659903
-0.074364245 -0.42044985 0.274864 0.05918497 0.23363188 0.04282692 0.15248126 -0.044648528
0.24377552 0.046741277 -0.14762774 0.080605924 -34.57081 -0.48364928 -3.504566 0.13829958
-4.0740395 -0.28744793 -0.34269103 -0.057441372 -0.08264972 -0.2635189 15.601693 -0.38019544
5.9175825 1.1251786 2.3178627 -0.9704363 1.729616 -0.8147045 -0.053293493 0.8117538
27.054096 -0.4460093 -3.4647381 2.390495 3.7399664 0.23656793 2.8545172 0.36565018
0.7406403 0.9268228 -23.49186 -0.2630649 -5.808332 0.011286079 -2.7047768 -0.000112076414
0.062433057 0.008359847 0.16327488 -0.31640995 4.898561 -0.3672577 0.47798923 -0.108903244
-0.08729379 -0.9384188 -0.71397 -1.5861179 -2.009293 -0.41117236 18.239527 0.103764825
18.216028 -0.5268242 1.2606181 -0.6534769 0.5198141 -0.040353186 -0.027733594 0.09324553
4.564001 -0.2155762 3.3269105 -0.12782069 1.3769664 -0.64190716 -0.19374387 -0.9975234
-1.0139418 -0.3249774 56.002316 -0.49457574 8.397334 3.5100043 2.275434 -0.44188198
3.3723872 0.61369306 -0.36428747 -0.2046326 -1.0518491 0.113834195 -2.129126 0.5219611
0.9405979 -0.06815668 0.39108905 -0.8023313 -0.7945245 0.45753857 0.31610408 0.05972752
0.09744865 -0.29494068 -0.20769012 -0.105258256 0.049448878 -0.27825555 -0.13625401 -0.18931563
-4.260244 0.14594282 -1.2208973 0.33413666 -7.196704 -1.6098161 1.6526573 -0.18387225
0.23278564 0.4294297 -267.83203 0.11041862 0.44686314 0.269549 -1.2702717 -0.28008166
-0.35308814 -0.3143812 -0.00309165 -0.0030983759 6.678802 0.08902309 1.3782403 0.048263744
2.0589042 0.43156365 0.6006919 0.10117786 0.5809734 0.3850821 15.664656 -1.4871341
-51.74974 -0.5155125 2.715369 -1.9805827 1.3020457 -3.4162052 -2.2695704 -0.40931916
12.250216 0.2738539 3.0222297 -0.17391497 0.6904777 0.40754634 0.5797138 1.5353727
0.3264682 0.7599942 -0.1543392 -0.038968906 0.17666341 -0.08080688 -0.18043162 -0.10828994
-0.23624581 0.112777084 0.22090581 -0.29770958 18.610598 0.37463018 5.0371847 -0.27780682
1.7229958 -0.0709648 1.1176244 0.202845 -0.52908957 0.38415492 -43.878395 0.88979894
-3.1939669 1.687392 2.268298 0.83027345 0.5864603 0.039707437 -0.5641066 -0.82535785
-0.287216 -0.11669998 0.2663047 0.12318811 -0.015728414 -0.19065554 -0.19346976 -0.28326637
-0.103078365 0.10679144 20.007114 -0.027059674 26.643167 -0.42609063 0.8541467 -0.30647302
-0.14882551 1.2321296 -0.7295895 -0.40576178 22.782331 1.1887983 1.7482098 0.8697547
5.9319777 1.1197388 3.255118 0.6143653 -0.16088 1.1641283 -18.58307 0.13331497
-4.233502 0.23942155 -0.9194063 -0.054752074 0.078575954 -0.2562767 -0.40330294 -0.3213906
26.5918 -0.16484845 -17.472214 -0.4764119 -3.006681 -0.8897749 -0.18507013 -1.2704405
-0.7774644 -0.37682205 2.6910362 -0.31591645 -3.2878706 -0.109615214 2.4765055 -0.6955523
00000000: 6169 e3c0 df5c 2f3e 9f6f c3bf d6f5 a33e
00000010: fdd9 6e3f f596 35bd b5c9 963e 7a2a fbbc
00000020: 484c 98bd 3445 d7be f9ba 8c3e f06b 723d
00000030: 323d 6f3e 486b 2f3d 0c24 1c3e 60e1 36bd
00000040: 4aa0 793e c873 3f3d ba2b 17be b814 a53d
00000050: 8248 0ac2 e1a0 f7be cf4a 60c0 689e 0d3e
00000060: 885e 82c0 602c 93be 3375 afbe a547 6bbd
00000070: 4244 a9bd f3eb 86be 89a0 7941 faa8 c2be
00000080: d65c bd40 da05 903f dd57 1440 836e 78bf
00000090: 0f64 dd3f 7990 50bf 474a 5abd 19cf 4f3f
000000a0: ca6e d841 555b e4be 45be 5dc0 dffd 1840
000000b0: 9c5b 6f40 dd3e 723e 69b0 3640 8036 bb3e
000000c0: 9a9a 3d3f 4244 6d3f 54ef bbc1 71b0 86be
000000d0: dbdd b9c0 3fe9 383c 101b 2dc0 910a ebb8
000000e0: ceb9 7f3d bdf7 083c 8831 273e 7c00 a2be
000000f0: 03c1 9c40 3409 bcbe 01bb f43e aa08 dfbd
00000100: 16c7 b2bd 373c 70bf bdc6 36bf e905 cbbf
00000110: 4298 00c0 2f85 d2be 8dea 9141 a782 d43d
00000120: 6dba 9141 f3dd 06bf ef5b a13f 434a 27bf
00000130: 8912 053f 6249 25bd 9031 e3bc 83f7 be3d
00000140: 4c0c 9240 02c0 5cbe 1aec 5440 6de3 02be
00000150: 6f40 b03f 0754 24bf cb64 46be b25d 7fbf
00000160: d8c8 81bf 7063 a6be 5f02 6042 0839 fdbe
00000170: 7b5b 0641 e9a3 6040 b6a0 1140 5b3e e2be
00000180: 31d5 5740 fd1a 1d3f e383 babe 358b 51be
00000190: fea2 86bf e721 e93d 9a43 08c0 3e9f 053f
000001a0: 06cb 703f bb95 8bbd d33c c83e 9665 4dbf
000001b0: f565 4bbf 7f42 ea3e 65d8 a13e d8a4 743d
000001c0: 2893 c73d 7702 97be b8ac 54be a491 d7bd
000001d0: e88a 4a3d 8377 8ebe 2c86 0bbe f5db 41be
000001e0: eb53 88c0 0972 153e 5d46 9cbf f613 ab3e
000001f0: 664b e6c0 740e cebf 468a d33f 0249 3cbe
00000200: 5c5f 6e3e 36de db3e 80ea 85c3 2823 e23d
00000210: 3fcb e43e 5402 8a3e 4398 a2bf dd66 8fbe
00000220: f8c7 b4be 93f6 a0be 489d 4abb 1f0e 4bbb
00000230: bfb8 d540 bd51 b63d 2e6a b03f 34b0 453d
00000240: 16c5 0340 e9f5 dc3e f2c6 193f 5636 cf3d
00000250: acba 143f 7b29 c53e 6ea2 7a41 695a bebf
00000260: bcff 4ec2 a1f8 03bf 9bc8 2d40 bc83 fdbf
00000270: 6fa9 a63f 1ba3 5ac0 a440 11c0 4892 d1be
00000280: e200 4441 9436 8c3e 366c 4140 c416 32be
00000290: 26c3 303f eaa9 d03e 2068 143f 1887 c43f
000002a0: d726 a73e fb8e 423f 180b 1ebe dc9d 1fbd
000002b0: 41e7 343e 147e a5bd 11c3 38be 1ec7 ddbd
000002c0: 6cea 71be acf7 e63d 2235 623e 646d 98be
000002d0: 81e2 9441 87cf bf3e 9e30 a140 b23c 8ebe
000002e0: 208b dc3f fe55 91bd 510e 8f3f 9ab6 4f3e
000002f0: 6a72 07bf f4af c43e 7a83 2fc2 ddc9 633f
00000300: f469 4cc0 76fc d73f cb2b 1140 cd8c 543f
00000310: 4322 163f 44a4 223d 4a69 10bf a74a 53bf
00000320: fa0d 93be 6600 efbd 1759 883e 0c4a fc3d
00000330: e0d8 80bc 353b 43be f01c 46be 4a08 91be
00000340: c01a d3bd 78b5 da3d 920e a041 40ac ddbc
00000350: 3525 d541 8d28 dabe 5ca9 5a3f 08ea 9cbe
00000360: b765 18be 6cb6 9d3f 61c6 3abf 02c0 cfbe
00000370: 3742 b641 8b2a 983f 57c5 df3f 3ea8 5e3f
00000380: c3d2 bd40 9a53 8f3f da53 5040 0b47 1d3f
00000390: babd 24be 2802 953f 21aa 94c1 b883 083e
000003a0: d978 87c0 ec2a 753e 365e 6bbf b643 60bd
000003b0: 6eec a03d b336 83be b97d cebe 4f8d a4be
000003c0: 02bc d441 08ce 28be 18c7 8bc1 43ec f3be
000003d0: 766d 40c0 4ac8 63bf 0683 3dbe cb9d a2bf
000003e0: e807 47bf d2ee c0be f039 2c40 cdbf a1be
000003f0: 796c 52c0 f17d e0bd 117f 1e40 b70f 32bf

fc1.bias f4 [64]
-0.996904 -0.2962661 -0.00059530826 -1.5755138 -3.7484648 -0.23724547 -0.03463764 -0.99594414
-0.4783356 -2.5657165 -0.9740554 -0.17677076 -0.75423646 -0.043362886 -2.246626 4.2239437
-2.3345764 -0.20390935 -2.6071408 -2.1638348 -0.23463699 -0.9107001 -6.794737 -0.008947709
0.25649658 0.02341306 -1.7370567 -0.5665596 0.893194 -0.2503324 -1.8336197 -2.4653974
-0.7367675 -5.2569003 -0.22995274 1.340675 -0.03474973 -0.29667166 -1.4056634 -0.06035352
-0.0015203677 -0.14930862 0.011075588 -0.0062488383 -0.32445756 -2.760874 -2.6086 -0.12571315
-0.61802614 -2.459977 -0.036562786 -2.5460525 -0.30651966 -0.06398322 -0.18542953 -0.10059503
-3.0806236 -0.112843595 -1.8277649 -0.01338814 -0.43550983 -0.5087914 -0.15090495 -0.26523483
00000000: 1a35 7fbf 31b0 97be 760e 1cba 70aa c9bf
00000010: d9e6 6fc0 7af0 72be 33e0 0dbd 32f6 7ebf
00000020: 67e8 f4be b334 24c0 b25b 79bf 6503 35be
00000030: a415 41bf 489d 31bd b8c8 0fc0 8c2a 8740
00000040: b369 15c0 9dcd 50be 65db 26c0 457c 0ac0
00000050: ae44 70be a423 69bf 7c6e d9c0 6999 12bc
00000060: 8553 833e bfcc bf3c e057 debf 0d0a 11bf
00000070: 5da8 643f 912b 80be 0db4 eabf 12c9 1dc0
00000080: cb9c 3cbf 8738 a8c0 bb78 6bbe 3d9b ab3f
00000090: bc55 0ebd 59e5 97be c7ec b3bf 4135 77bd
000000a0: 1347 c7ba 5ce4 18be 6276 353c 0ec3 ccbb
000000b0: 4d1f a6be 29b2 30c0 4df3 26c0 f3ba 00be
000000c0: f636 1ebf 4370 1dc0 dcc2 15bd 86f2 22c0
000000d0: 25f0 9cbe a209 83bd 3de1 3dbe c404 cebd
000000e0: f028 45c0 8b1a e7bd 33f4 e9bf ee59 5bbc
000000f0: 25fb debe 2740 02bf d486 1abe dccc 87be

fc2.weight f4 [64, 64]
0.06443547 -0.10131866 0.60260123 -0.6197369 1.3963592 0.041479792 -1.0212858 -0.10877826
-0.7486412 2.6409535 -0.55044603 0.10483025 -0.82836425 -5.763179 0.98243606 0.34273204
-0.07746062 0.062236667 0.8808428 1.7885097 -0.046815395 0.9677576 0.2978144 -0.11820072
-0.39172325 -0.4593625 0.09078787 0.14014512 0.2505191 0.07002507 0.6440435 1.3426515
-0.15423892 1.1568688 0.06412333 -0.55407494 -0.7461378 -0.23135555 -0.15609631 0.013905158
-0.051114455 -0.06383643 -0.76890695 -0.03907558 -1.5205733 -0.041920565 0.25800708 -3.5418358
-0.097632684 -0.029498475 -1.0151749 -0.7908348 -1.0132768 -0.24117082 -0.29787195 -0.063903324
0.07694892 0.14198783 1.3054879 -0.8583511 0.74300313 -0.4071296 0.033209264 -0.1170751
-0.058299247 0.123546004 -0.12812686 -0.22259296 -0.3963519 -0.24615578 1.0590242 0.31505787
0.263384 1.1192303 0.7238404 -0.015827626 -0.9495363 -12.3582115 1.1284753 0.30732524
-0.6533598 -0.14722204 0.35050368 2.075263 -0.063573495 1.1102573 -0.49641666 0.015917351
-0.6770169 -0.14444543 0.34008312 -0.11790324 0.34968367 -0.020839363 -0.3066302 -0.7018302
0.9510522 0.9965431 -0.11161399 -0.80327594 0.3115186 -0.20689297 -0.04970548 -0.32116175
0.032907803 -0.057949387 -0.029520439 -0.23202649 -0.9792676 0.36121517 -2.2420094 -2.0358663
0.51597625 0.8426786 -2.9305372 3.278467 -2.9650385 0.050179567 -0.34629166 -0.20205404
-1.4350724 -1.3055917 -0.0048984145 -0.061566886 0.6525089 0.4065634 0.07551366 -0.0059346557
0.18804488 -0.068780735 -0.7858942 0.479435 0.53160125 -0.053349547 0.14889893 0.8583531
-0.64146775 1.0090365 -0.61442834 -0.113265425 -2.3845804 -15.873199 1.274961 -0.77020574
0.16669908 0.09998315 0.4356645 0.24544927 -0.117048204 -0.117250696 -0.03455473 0.0048743794
-0.73584926 -0.67892015 0.11965245 0.15306787 0.34725714 -0.09107959 1.0290239 0.1879802
1.206921 1.6153117 0.09685129 -0.39746237 0.012090535 -0.21782005 0.16704442 0.22132146
0.082740344 0.028451221 -1.0041413 -0.14805071 -1.3340956 -0.034497887 2.0833566 -2.3260083
-0.14344229 -0.10556624 -2.7162316 1.1513813 -2.3228118 -0.614207 0.24867262 -0.34050566
0.6634496 0.7409134 0.14776787 -0.66495025 -0.050873823 -1.1989058 0.091203734 0.038967654
-0.05314043 -0.05140312 0.2021777 -1.1331118 0.23569964 0.12982106 4.218264 -0.85874933
-0.8123515 0.83590806 0.7843426 0.011162072 -0.4536794 -14.640804 1.1728411 -0.6460385
0.72084117 0.04390725 0.5571958 -2.9903336 -0.021590337 -0.1766088 -0.2702299 0.09883998
-1.2345259 -0.41733888 -1.0619339 0.1965031 -0.43399402 -0.038476914 0.35180032 0.79299164
0.18230158 0.094656244 0.11671731 -0.98111576 3.8824418 -0.15954049 -1.710484 2.104132
-0.63613015 0.052944295 2.2215085 -0.019358313 -0.06813877 0.7704643 1.1703265 -5.235075
-1.1215113 -0.4144899 -1.2124668 0.9510844 -2.96336 -0.43813452 -0.49644434 -0.087658934
-0.29814544 1.9435058 -0.02427979 -0.059667785 -0.5049876 -0.37269455 0.1032622 0.012787551
00000000: bef6 833d 2880 cfbd 1344 1a3f 14a7 1ebf
00000010: e6bb b23f b7e6 293d 7eb9 82bf 23c7 debd
00000020: f3a6 3fbf 6205 2940 08ea 0cbf 3eb1 d63d
00000030: ae0f 54bf f66b b8c0 ee80 7b3f 937a af3e
00000040: aca3 9ebd e0eb 7e3d ea7e 613f e3ed e43f
00000050: 80c1 3fbd f6be 773f 217b 983e 3813 f2bd
00000060: f38f c8be 9031 ebbe feee b93d 3482 0f3e
00000070: 0a44 803e 4e69 8f3d 09e0 243f 01dc ab3f
00000080: cff0 1dbe 4714 943f 1853 833d dbd7 0dbf
00000090: e302 3fbf 78e8 6cbe b6d7 1fbe 76d2 633c
000000a0: 645d 51bd adbc 82bd 16d7 44bf b70d 20bd
000000b0: 25a2 c2bf e6b4 2bbd 8119 843e 70ad 62c0
000000c0: a5f3 c7bd c9a6 f1bc 40f1 81bf 2674 4abf
000000d0: 0eb3 81bf 7cf5 76be ac82 98be bfdf 82bd
000000e0: 6597 9d3d 4265 113e 3a1a a73f e6bc 5bbf
000000f0: 7435 3e3f 4a73 d0be 7006 083d 12c5 efbd
00000100: 31cb 6ebd b005 fd3d b033 03be 69ef 63be
00000110: a3ee cabe 4310 7cbe 1b8e 873f 444f a13e
00000120: 45da 863e f042 8f3f 9b4d 393f f0a8 81bc
00000130: d014 73bf 3cbb 45c1 e171 903f bc59 9d3e
00000140: 9642 27bf 60c1 16be 3875 b33e 1cd1 0440
00000150: d232 82bd e91c 8e3f 532a febe 1b65 823c
00000160: fb50 2dbf 81e9 13be 601f ae3e 4177 f1bd
00000170: bd09 b33e 50b7 aabc a2fe 9cbe 25ab 33bf
00000180: 2878 733f 731d 7f3f e095 e4bd 7ea3 4dbf
00000190: 5e7f 9f3e c0db 53be f997 4bbd 506f a4be
000001a0: 55ca 063d 565c 6dbd d9d4 f1bc 5a98 6dbe
000001b0: 48b1 7abf 32f1 b83e 157d 0fc0 a24b 02c0
000001c0: 0517 043f c9b9 573f ec8d 3bc0 67d2 5140
000001d0: 31c3 3dc0 1789 4d3d 244d b1be 41e7 4ebe
000001e0: 74b0 b7bf a11d a7bf e182 a0bb 8f2d 7cbd
000001f0: d30a 273f 1429 d03e e8a6 9a3d 8077 c2bb
00000200: d68e 403e eadc 8cbd 5d30 49bf 8178 f53e
00000210: 0517 083f 0e85 5abd f678 183e 07bd 5b3f
00000220: 3b37 24bf 1c28 813f 2d4b 1dbf b4f7 e7bd
00000230: f79c 18c0 a0f8 7dc1 ec31 a33f 342c 45bf
00000240: 2ab3 2a3e f7c3 cc3d 6b0f df3e 0e57 7b3e
00000250: f8b6 efbd 2221 f0bd 4389 0dbd 42b9 9f3b
00000260: 9e60 3cbf b6cd 2dbf 580c f53d d3bd 1c3e
00000270: b0cb b13e f087 babd 0eb7 833f e27d 403e
00000280: 637c 9a3f 89c2 ce3f f859 c63d 3080 cbbe
00000290: 6117 463c 380c 5fbe b10d 2b3e 18a2 623e
000002a0: c573 a93d 8912 e93c b487 80bf 9b9a 17be
000002b0: a5c3 aabf a84d 0dbd b755 0540 52dd 14c0
000002c0: 89e2 12be 1d33 d8bd bdd6 2dc0 7660 933f
000002d0: f3a8 14c0 ac3c 1dbf 09a4 7e3e c256 aebe
000002e0: d5d7 293f 80ac 3d3f 7650 173e 2e3a 2abf
000002f0: 1261 50bd bf75 99bf 06c9 ba3d 8c9c 1f3d
00000300: c8a9 59bd 148c 52bd ac07 4f3e cf09 91bf
00000310: 3f5b 713e d0ef 043e 05fc 8640 ffd6 5bbf
00000320: 45f6 4fbf 12fe 553f adca 483f 20e1 363c
00000330: ab48 e8be bc40 6ac1 a81f 963f c762 25bf
00000340: 0c89 383f 17d8 333d 62a4 0e3f a061 3fc0
00000350: 38de b0bc f0d8 34be 935b 8abe 9e6c ca3d
00000360: f204 9ebf 71ad d5be 73ed 87bf 1c38 493e
00000370: 7734 debe f899 1dbd 2c1f b43e 8001 4b3f
00000380: 44ad 3a3e 22db c13d 7c09 ef3d 672a 7bbf
00000390: ed79 7840 955e 23be 24f1 dabf 19aa 0640
000003a0: 6dd9 22bf 1edc 583d 322d 0e40 5395 9ebc
000003b0: 578c 8bbd 263d 453f 42cd 953f bc85 a7c0
000003c0: af8d 8fbf 0538 d4be 1d32 9bbf 447a 733f
000003d0: b1a7 3dc0 2b53 e0be f42d febe 8786 b3bd
000003e0: 85a6 98be ccc4 f83f 69e6 c6bc 3566 74bd
000003f0: de46 01bf d2d1 bebe 227b d33d e082 513c

fc2.bias f4 [64]
-1.0297096 -1.2730459 0.38717514 -0.2986214 -3.4009323 -0.36216894 0.4586518 0.4470981
-0.33141088 -1.3829802 -0.36990127 -0.23729922 -0.59746647 -0.66305923 -0.6678959 -0.11925121
-0.29916474 -0.035236523 -1.599027 -0.0462835 -0.105285734 -0.5827594 -0.8173406 -2.2074182
-1.3437891 -2.9556246 -0.5804273 0.39573532 -0.1870003 -0.18314974 -0.37891442 0.3839886
0.39965674 -0.59306324 0.47934586 -1.2245286 -1.2212448 -0.756844 -1.4361686 -0.19526853
-3.4341033 -1.5356033 0.7704259 0.3381888 -0.23538354 -2.1042817 -0.788341 -0.40807566
-1.88012 0.77398574 -0.8102202 -2.6497664 -0.2795399 -1.1957185 -0.7576278 0.5072018
-3.5554 -3.2406788 -0.37950402 -1.4834905 -1.2864283 -0.87884 -0.27942407 -0.5749876
00000000: 86cd 83bf 2bf3 a2bf d23b c63e e7e4 98be
00000010: e0a8 59c0 356e b9be 69d4 ea3e 0bea e43e
00000020: b0ae a9be 7f05 b1bf b363 bdbe 91fe 72be
00000030: 90f3 18bf 40be 29bf 3afb 2abf fa39 f4bd
00000040: 1f2c 99be 2c54 10bd ebac ccbf c493 3dbd
00000050: 0ca0 d7bd b82f 15bf 3c3d 51bf 5746 0dc0
00000060: 4801 acbf f428 3dc0 e296 14bf d29d ca3e
00000070: 027d 3fbe 9b8b 3bbe 1201 c2be 279a c43e
00000080: cf9f cc3e fed2 17bf d26c f53e 5abd 9cbf
00000090: c051 9cbf 87c0 41bf 5fd4 b7bf 79f4 47be
000000a0: 59c8 5bc0 a68e c4bf a23a 453f 1527 ad3e
000000b0: 6208 71be 8dac 06c0 b7d0 49bf 4bef d0be
000000c0: c6a7 f0bf ee23 463f 976a 4fbf c695 29c0
000000d0: db1f 8fbe 4e0d 99bf e5f3 41bf fad7 013f
000000e0: ac8b 63c0 4867 4fc0 5a4e c2be 04e3 bdbf
000000f0: afa9 a4bf a9fb 60bf ac10 8fbe 6332 13bf

fc3.weight f4 [2, 64]
0.27897498 -0.264854 0.17820221 -0.47317725 -0.2936782 -0.010776486 0.22454344 0.82397324
-0.17959161 -0.008508704 -0.101549305 -0.17656648 -0.092131004 -0.13169898 -1.4068989 0.013431832
0.111982435 -0.2816776 -0.25173533 0.92512304 -0.112845734 -0.317881 -0.34098306 -0.58396065
-0.033563774 -0.2861896 -0.4280425 1.3479933 0.0113580385 0.051773727 -0.803734 0.3376843
-0.5608882 -0.16074957 0.5458809 -0.48734358 0.92471814 -0.53920954 -0.0082000885 0.076732926
0.22991101 0.56443965 2.3883169 -1.5744771 -0.10736258 -0.42689878 -0.12700413 -0.082319565
0.23358925 -0.41145307 -0.32783347 -0.18130605 -0.706239 0.0033862556 -0.27345315 1.8508945
0.08475404 0.42849058 0.048097424 -0.058930237 -0.18107837 -0.08089623 -0.067347415 -0.7760952
-0.08050015 0.18643798 -0.09168763 0.33123386 0.071645804 0.18142273 -0.27356574 -0.7813152
0.2851853 0.13208164 -0.11010321 -0.022277053 0.0652745 0.32947993 1.4697354 0.02323261
0.02776023 0.18931958 0.3830194 -1.031969 0.011281792 0.2025663 0.3705778 0.67877847
0.07778954 0.31687257 0.35360208 -1.2765671 0.07420549 0.020531371 0.8348569 -0.43388247
0.64793915 0.25761643 -0.49612707 0.4753546 -0.9743052 0.38126808 -0.12107297 0.08050892
-0.29314277 -0.9942312 -2.384192 1.6437414 0.1952016 0.16855417 0.05109435 0.29416847
-0.17768651 0.39907047 0.17629386 0.15121147 0.53169584 -0.059531093 0.24142934 -2.015392
-0.24415414 -0.43180192 0.030640624 0.04702613 0.2964771 -0.022671822 0.014661477 0.9278692
00000000: cfd5 8e3e f29a 87be a47a 363e 4a44 f2be
00000010: fd5c 96be dc8f 30bc b7ee 653e e9ef 523f
00000020: dde6 37be 1768 0bbc 15f9 cfbd d8cd 34be
00000030: 2eaf bcbd 19dc 06be 4315 b4bf 3011 5c3c
00000040: 0c57 e53d 0c38 90be 74e3 80be ddd4 6c3f
00000050: aa1b e7bd 4cc1 a2be 5595 aebe 727e 15bf
00000060: 2b7a 09bd 7187 92be 6328 dbbe 0b8b ac3f
00000070: 1117 3a3c b010 543d 83c1 4dbf f5e4 ac3e
00000080: 5e96 0fbf 899b 24be dabe 0b3f 1985 f9be
00000090: 54ba 6c3f a309 0abf aa59 06bc 2726 9d3d
000000a0: cb6d 6b3e 1e7f 103f 2fda 1840 7788 c9bf
000000b0: eae0 dbbd 7a92 dabe 5f0d 02be 2997 a8bd
000000c0: 0532 6f3e faa9 d2be cad9 a7be 4ba8 39be
000000d0: 14cc 34bf f1eb 5d3b 0d02 8cbe 1cea ec3f
000000e0: 8793 ad3d 1e63 db3e ce01 453d d560 71bd
000000f0: 9c6c 39be ecac a5bd 71ed 89bd 2dae 46bf
00000100: 43dd a4bd 99e9 3e3e b9c6 bbbd 7c97 a93e
00000110: 09bb 923d e1c6 393e cf10 8cbe 4604 48bf
00000120: cf03 923e 6940 073e cb7d e1bd 5e7e b6bc
00000130: a3ae 853d 98b1 a83e 4a20 bc3f 5152 be3c
00000140: 6c69 e33c fedc 413e 1e1b c43e 8f17 84bf
00000150: 44d7 383c 8a6d 4f3e 60bc bd3e 6dc4 2d3f
00000160: 1f50 9f3d 1f3d a23e 550b b53e 8d66 a3bf
00000170: 0cf9 973d 6831 a83c 2fb9 553f d825 debe
00000180: 57df 253f 4de6 833e 5e04 febe ae61 f33e
00000190: 116c 79bf 9235 c33e 1bf5 f7bd dce1 a43d
000001a0: cf16 96be f085 7ebf 9a96 18c0 1e66 d23f
000001b0: eee2 473e 7799 2c3e 4f48 513d 409d 963e
000001c0: 74f3 35be f752 cc3e 6186 343e 2ed7 1a3e
000001d0: 381d 083f e0d6 73bd 4139 773e 2ffc 00c0
000001e0: 8b03 7abe 2415 ddbe 0c02 fb3c 799e 403d
000001f0: d9cb 973e 42ba b9bc b136 703c d688 6d3f

fc3.bias f4 [2]
-0.7051046 0.8442758
00000000: bc81 34bf 7522 583f
