CIDDS/binary/impurity/10/nn_model_simple.pth (torch, 5520 bytes, 4 tensors)

fc1.weight f4 [64, 10]
30.227709 0.0863634 13.929959 -0.49229383 2.2509649 -2.5573444 -0.09743005 0.98515415
-3.0005205 -3.0583942 31.54563 -0.10271924 13.810536 -0.2568289 2.407852 -5.1211853
0.11406653 -2.1339378 -4.664683 -4.8323646 0.11941591 0.017489165 0.1117495 0.25962332
-0.21515357 0.044938833 -0.06578836 -0.3091493 -0.307286 -0.041406512 36.965305 0.595541
23.169054 1.6600022 1.8276465 -0.8036617 1.079764 1.435619 -0.9107334 -0.5329998
55.803764 1.6391073 18.12613 1.7916002 -13.426111 -0.07759774 -1.6154006 -2.646881
-0.5559858 -1.7253667 -33.4547 -1.5659835 -7.017823 -1.5878196 -9.130527 0.22621985
-0.3068246 -0.2313939 0.07485987 -1.541299 -396.52835 0.33446386 -1.2057989 0.057684034
-2.9062552 0.056945328 -0.043388598 -0.2768648 -0.272074 -0.0023323658 29.717667 0.098451056
14.2731285 1.7535534 0.39062336 -1.4408869 2.0402057 1.1262553 -0.34491006 0.34275436
-249.17003 0.5991044 -3.3883772 0.63958234 -3.940731 -0.6686795 -0.005910143 0.020840742
0.1411847 -0.67860353 31.868542 0.38586912 15.042147 0.54722965 0.69516975 0.058955032
-0.16038215 -0.25472912 0.0327355 0.14392649 39.44037 -0.32329383 20.466543 2.2694385
2.4649632 -1.7580842 1.563647 1.6247388 -1.778465 -1.4349326 34.39153 -0.07764518
15.772189 0.021042235 1.4922274 -3.737404 -0.32377234 -1.6561737 -3.488003 -3.4064262
35.375763 -0.05360367 14.844851 -0.3335497 2.318479 -5.0795426 -0.08159189 -2.05703
-4.7784104 -5.1917877 4.48965 2.630754 -8.241398 -0.2953484 3.4480827 -7.1399927
5.984819 -0.5138038 -0.5846044 -0.85095984 -84.694954 0.046855614 -32.842846 0.334005
-4.2293463 -0.19913451 0.21168324 -0.2847423 -0.54444766 -0.06943354 31.64256 1.9411601
10.641281 3.6924326 3.8949797 -2.8733757 4.990509 0.8291128 -1.0013762 -0.54316634
-94.184456 1.3903493 -24.373884 0.008244115 -4.6510677 -2.9701052 2.2069464 -0.36880505
-0.93433046 -0.2040407 1.3090178 0.27644104 1.4416406 2.403481 -1.6525246 -1.7364507
3.3188324 0.18633114 -0.6819752 1.4650146 27.467442 0.50600964 14.401136 -0.2436764
2.4131055 -1.9746306 0.7257385 1.800013 -1.612521 -1.6726879 34.64054 0.10524202
14.309295 -0.005650928 2.2826133 -2.894499 0.38743958 0.9242915 -2.7806973 -3.390637
-50.23206 0.56577814 -13.381596 0.38480672 -8.838997 -0.664883 -1.4152564 -0.05528778
-0.27197492 0.260119 -108.6433 0.08898761 -19.494707 0.23592377 -4.6429853 0.0033423412
-0.062115226 -0.10767175 -0.12947522 0.006085655 35.869564 1.4849886 17.814701 -0.39655894
1.7959031 -0.04024072 1.3738631 0.48417452 0.2862778 0.27717686 27.402441 0.36728683
17.135855 -0.5053027 2.3189979 -1.7320952 0.49660903 1.4125499 -1.5889363 -1.6099263
2.412553 -0.32861042 -33.474 -0.04113813 3.0791962 -2.6745346 -0.7131394 -1.6187646
-2.6264951 -1.9515532 35.64286 1.8296915 21.972458 -0.21961251 1.8286508 -0.09202438
00000000: 59d2 f141 4bdf b03d 1de1 5e41 f00d fcbe
00000010: cf0f 1040 88ab 23c0 6889 c7bd 1033 7c3f
00000020: 8708 40c0 bbbc 43c0 735d fc41 775e d2bd
00000030: f5f7 5c41 147f 83be 3f1a 1a40 c0e0 a3c0
00000040: b69b e93d 7092 08c0 1545 95c0 bba2 9ac0
00000050: 5490 f43d 7045 8f3c ecdc e43d 59ed 843e
00000060: 3851 5cbe c811 383d 0cbc 86bd d148 9ebe
00000070: 9754 9dbe e099 29bd 79dc 1342 6075 183f
00000080: 395a b941 f47a d43f 52f0 e93f c6bc 4dbf
00000090: b535 8a3f 5dc2 b73f d325 69bf ad72 08bf
000000a0: 0e37 5f42 45ce d13f 5002 9141 2853 e53f
000000b0: 5ad1 56c1 90eb 9ebd 72c5 cebf 8066 29c0
000000c0: 1655 0ebf d1d8 dcbf 9dd1 05c2 2672 c8bf
000000d0: 0292 e0c0 ac3d cbbf a316 12c1 2da6 673e
000000e0: 1d18 9dbe 86f2 6cbe 2250 993d 4949 c5bf
000000f0: a143 c6c3 d93e ab3e 9e57 9abf 1846 6c3d
00000100: 1600 3ac0 813f 693d 3eb8 31bd 39c1 8dbe
00000110: 494d 8bbe 9bda 18bb c8bd ed41 b5a0 c93d
00000120: bc5e 6441 7074 e03f c9ff c73e fb6e b8bf
00000130: bb92 0240 2229 903f 0d98 b0be 807d af3e
00000140: 872b 79c3 e85e 193f 2cdb 58c0 abbb 233f
00000150: f034 7cc0 942e 2bbf dfa9 c1bb 34ba aa3c
00000160: b992 103e f6b8 2dbf c6f2 fe41 a390 c53e
00000170: a2ac 7041 3e17 0c3f a5f6 313f d57a 713d
00000180: 383b 24be db6b 82be a915 063d 7761 133e
00000190: f0c2 1d42 c586 a5be 7bbb a341 7b3e 1140
000001a0: f5c1 1d40 e708 e1bf 9625 c83f 71f7 cf3f
000001b0: bea4 e3bf dfab b7bf ed90 0942 7004 9fbd
000001c0: e35a 7c41 c460 ac3c 4f01 bf3f a131 6fc0
000001d0: 7dc5 a5be 80fd d3bf 713b 5fc0 e302 5ac0
000001e0: c880 0d42 868f 5bbd 8284 6d41 07c7 aabe
000001f0: f661 1440 9d8b a2c0 a619 a7bd 61a6 03c0
00000200: bde8 98c0 2023 a6c0 36ab 8f40 465e 2840
00000210: c4dc 03c1 e837 97be 63ad 5c40 d27a e4c0
00000220: a383 bf40 a588 03bf a2a8 15bf 81d8 59bf
00000230: d163 a9c2 aceb 3f3d 135f 03c2 b402 ab3e
00000240: ce56 87c0 ebe9 4bbe 7ec3 583e bec9 91be
00000250: ec60 0bbf 2c33 8ebd f623 fd41 ef77 f83f
00000260: b042 2a41 d150 6c40 5947 7940 63e5 37c0
00000270: 40b2 9f40 bd40 543f 182d 80bf f30c 0bbf
00000280: 715e bcc2 f7f6 b13f b7fd c2c1 5312 073c
00000290: 8cd5 94c0 3416 3ec0 9c3e 0d40 04d4 bcbe
000002a0: 4830 6fbf 0cf0 50be e58d a73f ae89 8d3e
000002b0: ae87 b83f a2d2 1940 ed85 d3bf 0444 debf
000002c0: c067 5440 97cd 3e3e ed95 2ebf 9985 bb3f
000002d0: 52bd db41 d989 013f 0e6b 6641 4e86 79be
000002e0: 5270 1a40 b2c0 fcbf 00ca 393f d366 e63f
000002f0: 1767 cebf a31a d6bf ea8f 0a42 2189 d73d
00000300: dff2 6441 6b2b b9bb 5616 1240 793f 39c0
00000310: 7b5e c63e 5e9e 6c3f f2f6 31c0 3200 59c0
00000320: a1ed 48c2 d6d6 103f 041b 56c1 6305 c53e
00000330: 886c 0dc1 c635 2abf 1f27 b5bf 7075 62bd
00000340: 4c40 8bbe 512e 853e 5f49 d9c2 233f b63d
00000350: 29f5 9bc1 0096 713e 5693 94c0 2e0b 5b3b
00000360: 896c 7ebd 0283 dcbd 2795 04be 2d6a c73b
00000370: 6f7a 0f42 1b14 be3f 8284 8e41 c609 cbbe
00000380: 27e0 e53f 74d3 24bd bfda af3f b9e5 f73e
00000390: 0193 923e 20ea 8d3e 3338 db41 050d bc3e
000003a0: 3b16 8941 855b 01bf 766a 1440 4cb5 ddbf
000003b0: 8a43 fe3e 6fce b43f 4462 cbbf 1112 cebf
000003c0: 4567 1a40 a03f a8be 60e5 05c2 7580 28bd
000003d0: 8d11 4540 932b 2bc0 4e90 36bf ae33 cfbf
000003e0: 7f18 28c0 7fcc f9bf 4a92 0e42 5533 ea3f
000003f0: 98c7 af41 1ae2 60be 3b11 ea3f 4777 bcbd

fc1.bias f4 [64]
-1.9504048 -2.5550332 -0.11447844 -1.9756919 -1.2665881 -0.30108264 -0.09659945 -2.4191527
-0.19079253 -1.4908264 -2.6527348 -2.4059224 -2.493462 -4.0953364 0.10668153 -4.3338966
-0.8333599 -1.981162 -2.5882108 -2.0606127 -0.29387543 -0.21552937 -1.719906 -2.1582377
-0.07869232 -1.7997301 -2.0522273 -1.4019248 1.0648253 -0.21977185 -0.319667 1.0940613
-5.869744 -0.15078321 -1.8797349 -2.3392732 -0.0008914464 -0.26719695 0.013515036 -0.08198026
-2.6561809 -2.9323127 -0.17054205 -1.646826 -2.3084111 -1.3519157 -0.5385307 -0.449727
-0.25523674 -2.6152997 -4.9232244 -0.32745448 -3.027498 -0.45334226 -1.016626 -0.5213791
-0.27287996 0.39803725 -0.31103736 -0.14894807 -1.9906651 -3.082094 -0.08852298 -0.9418202
00000000: dda6 f9bf aa85 23c0 ac73 eabd 79e3 fcbf
00000010: 8f1f a2bf 8127 9abe efd5 c5bd 66d3 1ac0
00000020: 1e5f 43be 66d3 bebf 68c6 29c0 a2fa 19c0
00000030: e294 1fc0 ff0c 83c0 d97b da3d 48af 8ac0
00000040: 1357 55bf b796 fdbf 3fa5 25c0 14e1 03c0
00000050: d776 96be bbb3 5cbe e125 dcbf 9120 0ac0
00000060: 7029 a1bd 8e5d e6bf b157 03c0 4672 b3bf
00000070: 324c 883f df0b 61be 65ab a3be 330a 8c3f
00000080: f1d4 bbc0 ea66 1abe 279b f0bf a7b6 15c0
00000090: f5af 69ba 0ace 88be 2b6e 5d3c 44e5 a7bd
000000a0: defe 29c0 03ab 3bc0 93a2 2ebe 32cb d2bf
000000b0: 02bd 13c0 930b adbf 26dd 09bf 9e42 e6be
000000c0: 64ae 82be 1261 27c0 0e8b 9dc0 1da8 a7be
000000d0: 87c2 41c0 7a1c e8be cd20 82bf 1a79 05bf
000000e0: ecb6 8bbe 8acb cb3e 4a40 9fbe d885 18be
000000f0: 1dce febf 0741 45c0 894b b5bd 211b 71bf

fc2.weight f4 [2, 64]
-0.77576196 -0.6798971 0.05847545 -0.22576858 -0.19587019 0.021973642 -30.18748 0.3634142
-5.018583 0.49176434 -0.54955536 0.32239506 -0.83924156 0.004418824 -11.028764 0.033057686
0.14963414 -1.7090129 0.13814063 -0.121562585 0.10071972 -17.468395 0.3786821 -0.14552876
-1.3857906 0.5961495 -0.048964847 0.040962692 -1.1913533 -2.8280761 -0.01117784 -1.3997709
8.207581 -0.11637736 1.4090761 -0.49423364 0.018857371 -0.0012937406 -1.9759877 -3.2103949
-0.44126055 0.37054417 -0.8333763 -1.6173164 0.13596797 0.11998274 -0.016262524 -2.9501882
0.038478114 -0.2836599 1.3631707 -22.059767 0.069580406 1.2309419 0.70250493 -0.9969336
-0.35324773 0.77047896 -0.1031114 -24.585766 -0.11999124 -0.04816936 0.019264463 -0.07386239
0.7340984 0.62054783 -0.103827566 0.23983654 0.28689978 0.021978594 30.084303 -0.50257266
5.1364408 -0.34939426 0.69937205 -0.26724696 0.947001 -0.018372938 10.997855 0.021974603
0.037252463 1.5704075 0.06043036 0.16571689 0.100660756 17.716558 -0.15341757 0.3469486
1.4529616 -0.7093471 0.052412756 0.036073025 1.130356 2.889935 0.0026458637 1.3233403
-8.243613 -0.11923424 -1.2975557 0.5986874 -0.012600441 0.055779196 1.9827529 3.1543512
0.4498441 -0.4914999 0.86900616 1.5074015 -0.22832581 -0.015240915 -0.01626275 2.8819597
0.038881518 0.063229464 -1.2217437 22.05415 0.052643582 -1.2101146 -0.7835462 1.1898856
0.2856703 -0.8428144 0.12039894 24.483004 0.13585152 0.17316633 0.01001362 -0.03235345
00000000: 5698 46bf bd0d 2ebf f483 6f3d e12f 67be
00000010: 3292 48be 1102 b43c f67f f1c1 6d11 ba3e
00000020: 3b98 a0c0 89c8 fb3e a9af 0cbf f710 a53e
00000030: 89d8 56bf c8cb 903b d175 30c1 7f67 073d
00000040: b139 193e efc0 dabf bd74 0d3e cef5 f8bd
00000050: 2446 ce3d 46bf 8bc1 9fe2 c13e 7e05 15be
00000060: 9661 b1bf 419d 183f 5d8f 48bd 7fc8 273d
00000070: 447e 98bf 33ff 34c0 4223 37bc b12b b3bf
00000080: 4052 0341 4157 eebd 9b5c b43f 310c fdbe
00000090: c67a 9a3c bb92 a9ba 2aed fcbf 1c77 4dc0
000000a0: e7ec e1be f7b7 bd3e 2658 55bf 3904 cfbf
000000b0: 303b 0b3e 83b9 f53d fc38 85bc e2cf 3cc0
000000c0: 3a9b 1d3d df3b 91be 617c ae3f 677a b0c1
000000d0: 2c80 8e3d 818f 9d3f 5dd7 333f 0a37 7fbf
000000e0: e3dc b4be 1c3e 453f 122c d3bd a6af c4c1
000000f0: f8bd f5bd 3c4d 45bd 82d0 9d3c 2a45 97bd
00000100: dfed 3b3f 39dc 1e3f 8ca3 d4bd b697 753e
00000110: 87e4 923e 740c b43c a7ac f041 9aa8 00bf
00000120: b95d a440 cee3 b2be 0c0a 333f 98d4 88be
00000130: a86e 723f d882 96bc 37f7 2f41 1504 b43c
00000140: 0a96 183d 1d03 c93f d385 773d b0b1 293e
00000150: 3a27 ce3d 83bb 8d41 7f19 1dbe 3fa3 b13e
00000160: a5fa b93f c697 35bf c2ae 563d 4fc1 133d
00000170: 81af 903f b2f4 3840 3a66 2d3b 3763 a93f
00000180: d7e5 03c1 1531 f4bd 4e16 a6bf 9443 193f
00000190: 1572 4ebc ba78 643d d9ca fd3f e4e0 4940
000001a0: f751 e63e e0a5 fbbe 3077 5e3f 88f2 c03f
000001b0: 3ece 69be 08b5 79bc 7539 85bc 0772 3840
000001c0: 3a42 1f3d 737e 813d 1962 9cbf e66e b041
000001d0: cca0 573d 09e5 9abf 7c96 48bf 2c4e 983f
000001e0: 6143 923e afc2 57bf b893 f63d 31dd c341
000001f0: a91c 0b3e 8452 313e 2b10 243c 0d85 04bd

fc2.bias f4 [2]
1.7175741 -1.7767003
00000000: 78d9 db3f ea6a e3bf
